AutogluonModels/ag-20240622_205535/models/NeuralNetFastAImodel-internals.pkl (torch, 143444 bytes, 15 tensors)

weight f4 [24]
00000000: ecc2 793f 1907 853f a275 843f 3978 813f
00000010: 2f3d 823f 5d94 7f3f bd79 823f 3bea 763f
00000020: cabf 823f 9828 803f 873b 663f 16ca 803f
00000030: 4d1a 723f 79a0 723f eead 7c3f 8887 733f
00000040: c124 6f3f d0ec 833f 59ee 7d3f 63b5 803f
00000050: 4ebb 853f ce5e 713f 1240 813f 0d90 803f
0.9756305 1.0392791 1.0348399 1.0114814 1.0174922 0.9983576 1.0193402 0.9645116
1.0214779 1.0012388 0.8993458 1.0061672 0.9457138 0.9477611 0.98702896 0.9512868
0.93415457 1.0306644 0.99191815 1.0055355 1.0447786 0.94285285 1.0097678 1.0043961

bias f4 [24]
00000000: d3e1 f33b 694f 81bd 88b2 8ebd 999e 05be
00000010: 3e58 0bbe 9691 ffbd 5456 bfbd a86a 92bd
00000020: 9a78 233d 97e9 083d b506 df3c 18ca 563d
00000030: 1327 e33c f477 413c 5357 fdbd 23f6 ca3d
00000040: d93e 30bd 63e4 e83d af0a abbc a2c4 013e
00000050: 9c86 0cbe 9c28 d0bd 8797 4d3e c53b 9dbb
0.007442692 -0.063139744 -0.06967646 -0.13048781 -0.1360788 -0.1247894 -0.09342638 -0.07149249
0.039909936 0.033425894 0.027224878 0.052438825 0.027728593 0.011808384 -0.123701714 0.09910228
-0.043028686 0.11371686 -0.020879118 0.12672666 -0.13723224 -0.101639956 0.20077334 -0.004798385

running_mean f4 [24]
00000000: 8559 89bc d648 133c a167 5fbc 1353 92bc
00000010: f6ad a8bc 58fa 19bd e230 b4bc 8aff 2ebc
00000020: 4f9e 883c a0f3 c83b 1150 713b b950 f3bb
00000030: 1f91 dcbb 3ec3 123b 4379 4ebc 82f9 e63a
00000040: 8961 cd3b 8b15 5bbb 2047 873c 8a05 a3bc
00000050: 6b48 39bc 1e63 a1ba 4123 0fbd 69d6 dbbb
-0.016766319 0.008989533 -0.013635547 -0.017861878 -0.020590764 -0.037592262 -0.021995965 -0.010681042
0.01667705 0.006132558 0.0036821405 -0.0074253944 -0.006731167 0.0022394205 -0.012602153 0.0017621967
0.0062677306 -0.0033429589 0.016513407 -0.019900102 -0.01130877 -0.0012312864 -0.03494573 -0.0067089093

running_var f4 [24]
00000000: bec9 803f 5ad9 7c3f ef79 813f 0978 813f
00000010: 5463 6d3f 94a3 813f 2074 743f f9f1 803f
00000020: e6cd 813f 2c86 813f e897 833f 0147 7d3f
00000030: f37d 7d3f 6b36 803f d505 813f b491 803f
00000040: 01aa 853f b84a 813f 25c4 853f 2f83 7e3f
00000050: a96e 833f dad7 803f d889 843f 5813 813f
1.0061567 0.9876915 1.0115336 1.0114757 0.9272969 1.0128045 0.9548969 1.0073844
1.014096 1.0119071 1.0280733 0.9893647 0.9902031 1.0016607 1.0079905 1.0044465
1.0442506 1.0100927 1.0450484 0.9941892 1.0268146 1.0065873 1.0354567 1.0084028

weight f4 [200, 24]
00000000: 7f79 30bd 988e e03d 952b 18be 481b 3dbe
00000010: 25f9 e7bd 8aa8 7b3d 0ace 0e3d e270 3c3e
00000020: 316d 443c 8387 3d3d d95d bdbd f2d7 efbb
00000030: a341 26be 33a2 e8bd 0cdc abbd 4cc5 1fbd
00000040: 3aec 813d bffe 0f3e f1b1 1ebe 0245 e9bd
00000050: f245 283d d0da 083e a1bb 5ebd 42ee 233e
00000060: c89f 333c 610a a93b 0467 5b3e a362 1abe
00000070: 247d d7bd db6d 4ebd 5add 9abd b7a8 2c3e
00000080: 562c 3abe 6af8 dabd 5bf6 1bbe e9d4 44be
00000090: f243 fdbd 77aa 143e 3088 023e 8d19 d63d
000000a0: 8ea9 debc e986 07be f11d 6b3c 4281 18be
000000b0: 850f 2abe 998b b5bd 3e8a 2d3e e2f8 fe3d
000000c0: 3398 fcbd 0b9a e0bc bdef 033e 367d 5c3e
000000d0: 0010 b63d dc2b ae3b 3efc 233e f324 ebbd
000000e0: a7fa 6e3b 3c77 51be cc50 02be c36c e4bd
000000f0: 161a b13d bac6 523d ff42 90bd 5860 193d
00000100: 8d7a bf3d c760 39bd c4f8 e7bc 8b29 b93d
00000110: ebd5 093e de04 133e 9120 2bbe a7cf 8abd
00000120: bbe4 743d 0ebb 393e 7276 393e 01e3 183e
00000130: 8214 cc3c 2e26 54be f975 a63c 0837 09be
00000140: 7f19 5bbe 354d 153e 67dc 113e d7d7 6fbe
00000150: d753 083c d9bc 81bc 0ad7 61bd d5dc 91bd
00000160: 0c84 c83d 803c c3bd 1968 a83d b25b 9f3d
00000170: 2646 f53d a0f6 3c3d f1ad 6ebe fa7d 22be
00000180: 3f37 b63d 5bc6 953d b2cd 1bbe cd78 21be
00000190: 6093 0e3e c3cc 9b3d baaa e9bd 48e8 cfbd
000001a0: 57f7 19be 60ec 573d be03 07be d319 34be
000001b0: 26ad b9bc 0d19 1f3d c6d0 debd 652a 113e
000001c0: 2261 c5bd b8c6 3c3e 1431 203e 8c59 42be
000001d0: 5d8e cebd 20ae a6bc 4cd2 bcbc 722c 3c3d
000001e0: 8388 e63d 2993 f7bc 752d 92bd 2633 023e
000001f0: 252b 48be a732 05be 1d36 21bd e602 c7bd
00000200: fa93 98bd 6276 09be cba8 18bd bd9b 0d3d
00000210: 32d4 11be af6d 863d 8976 0b3e 8dba 5fbd
00000220: 3146 4fbd bd42 9c3c 51c7 4d3d a27c 023e
00000230: 27be 703e a25f e73d 5eab 533e bd13 893d
00000240: 5027 27be 991c 8ebd 7245 173e aa5e 333d
00000250: 5d5c 79bd ee68 1bbe 78d3 76be 13f7 1ebe
00000260: 684f 92bd abd4 0b3e c537 da3d ea30 1ebe
00000270: 7d87 283e 75f9 45be 4843 e3bc 0aa4 f0bd
00000280: ce0b 01bd 3fd3 a7bd ac82 35be f7c1 0cbe
00000290: 5732 33bd 75ea 81bc 759b a3bd 33e5 0f3e
000002a0: a2d0 2bbe c863 02bc d53a 3d3e 5231 84bd
000002b0: 2645 4d3e 4ec3 ab3d bc17 3dbe aaf3 1b3e
000002c0: f09c 08bd 5c96 c7bd 3221 363e 9205 1abe
000002d0: abf7 1c3d c910 20bd 8131 153e fcf6 7c3d
000002e0: 1602 d53d e48d 4d3d a92c afbc c676 2dbd
000002f0: b77f 1bbe a056 5b3d 3a9c 183e 8de4 fe3d
00000300: 29a6 06be 25c6 62bc 7187 30be cb09 b2bd
00000310: c107 d1bd 736d c53d 7a1f 11be a1d2 963b
00000320: 8c95 33bb 66b8 1d3e 753b 0dbe 697c 14be
00000330: a296 f0bd 8c0d f33d c965 2bbd 409c 443e
00000340: 2985 a93d db42 e83c 5ffa 68bd 8718 bcbc
00000350: f418 0b3c eaed 81bc f3f3 1a3d b646 2dbd
00000360: d049 47be 35e3 bfbd 0937 1e3e bcd2 38be
00000370: 9fcf a5bc 06b7 593e 5854 8b3d a41f a5bc
00000380: 1319 32be afbc 1d3e 5853 2abe 407e eebc
00000390: 0764 38bd 9ea6 8cbd c366 f33c 4514 283e
000003a0: 2d67 443c c860 1c3e fe2b da3d e4ff d0bd
000003b0: 2e20 5d3d 868a 2bbe 7790 9abd 6e49 053d
000003c0: 8217 993d 8265 4c3e 363e 1bbd e5ab 653d
000003d0: 2731 c83d 5944 58be 2b04 353e 9fb9 32be
000003e0: 1d79 22bc 8c76 b3bd ad31 b4bd 356c ba3c
000003f0: 773b 2b3e f6a9 a3bd 7a90 98bd ca52 00be
-0.043084618 0.109646976 -0.14860375 -0.18467438 -0.113268174 0.06144003 0.034864463 0.18402436
0.011988924 0.046271812 -0.09246416 -0.007319444 -0.16235976 -0.11359062 -0.0839158 -0.039006516
0.06343885 0.14062022 -0.15497567 -0.11390115 0.04108233 0.1336472 -0.054378156 0.16008857
0.010963388 0.005158708 0.21426016 -0.1507669 -0.105219156 -0.050397735 -0.07561751 0.16861235
-0.18180975 -0.106919125 -0.15230696 -0.19221844 -0.12366475 0.14518152 0.12747264 0.10454092
-0.02718046 -0.13235058 0.0143504 -0.14893058 -0.16607483 -0.08864517 0.16947266 0.124498144
-0.12333717 -0.027417203 0.12884422 0.21532139 0.088897705 0.005315287 0.16014192 -0.11481657
0.0036465318 -0.2045564 -0.12726134 -0.11153557 0.086475536 0.05145905 -0.070440285 0.037445396
0.093495466 -0.04525831 -0.028316863 0.09041127 0.1346051 0.14357325 -0.16711642 -0.06777888
0.059788447 0.18137762 0.1811159 0.14930345 0.024912123 -0.2071769 0.020319926 -0.13399899
-0.21396445 0.14580233 0.14244233 -0.2342218 0.00832077 -0.01583712 -0.055136718 -0.071221985
0.09790811 -0.09533024 0.0822298 0.07781161 0.119762704 0.046133637 -0.23308541 -0.15868369
0.08897256 0.07313224 -0.15215185 -0.15768738 0.13923407 0.076074146 -0.11409517 -0.10151726
-0.15035759 0.05271566 -0.13185021 -0.17587976 -0.022665571 0.03884225 -0.10879664 0.14176328
-0.09637667 0.1843518 0.15643722 -0.18979472 -0.100857474 -0.020346701 -0.023049496 0.045940824
0.11256506 -0.030221539 -0.071375765 0.12714824 -0.19547708 -0.13007604 -0.039358247 -0.0971735
-0.07450099 -0.13424066 -0.03727035 0.03457235 -0.14241102 0.06563889 0.13619436 -0.054621268
-0.05060405 0.019074792 0.05023891 0.12742856 0.23510037 0.112975374 0.2067084 0.06693218
-0.1632359 -0.06939048 0.14772585 0.04379145 -0.0608791 -0.15176746 -0.24104106 -0.15523939
-0.07144052 0.13655345 0.106551684 -0.15448347 0.16457935 -0.19333442 -0.027742043 -0.11750038
-0.0315054 -0.08194589 -0.17725629 -0.13745867 -0.04374918 -0.015858868 -0.079886355 0.14052276
-0.16778806 -0.00795836 0.18479474 -0.064547196 0.2004591 0.08386861 -0.18466085 0.15229669
-0.033352792 -0.09745476 0.177861 -0.15041187 0.038322132 -0.039078508 0.14569665 0.06175898
0.104007885 0.050184146 -0.0213836 -0.0423496 -0.15185438 0.05354941 0.14903346 0.12445936
-0.13149323 -0.013841187 -0.17239167 -0.08693274 -0.10206557 0.096400164 -0.14172164 0.0046027456
-0.002740237 0.15402374 -0.13792212 -0.14500584 -0.11747481 0.11867818 -0.041845117 0.1920023
0.082773514 0.028352192 -0.056879397 -0.022960914 0.008489836 -0.015860517 0.037830304 -0.042303763
-0.19461751 -0.09369508 0.15450682 -0.18049139 -0.020240603 0.21261224 0.06803197 -0.020156689
-0.17392378 0.15404008 -0.16633356 -0.029112935 -0.04501727 -0.06867717 0.029712087 0.16413982
0.01198749 0.15271294 0.10652922 -0.10205057 0.053985767 -0.16752061 -0.07547086 0.03254073
0.07475187 0.19960597 -0.037901126 0.056072135 0.09775 -0.21119823 0.17677371 -0.17453621
-0.009916571 -0.087628454 -0.087985374 0.022756675 0.16721903 -0.07991402 -0.07449432 -0.12531582

weight f4 [200]
00000000: 2260 803f b03c 7e3f af75 7a3f d7a7 7c3f
00000010: 3f26 7b3f 61df 883f a33b 833f 0aa7 793f
00000020: 5668 763f 3be9 7f3f f5da 833f 3e01 7a3f
00000030: 8502 863f 39c1 813f 4980 7a3f c2b6 7e3f
00000040: f114 843f c9c9 773f 45d2 813f 54c3 803f
00000050: eef6 793f b106 803f 6054 843f eac1 7a3f
00000060: 2e39 7e3f c904 803f 19b9 863f edc4 823f
00000070: 258a 7f3f 1a79 7c3f 36bb 7c3f 82c5 823f
00000080: 6842 763f 4e25 7d3f 46b7 7e3f 8785 8a3f
00000090: 7551 7c3f 3f16 813f 178d 793f b9b4 833f
000000a0: a25d 7d3f cf4e 7a3f 780a 823f bf0b 7a3f
000000b0: 815c 7e3f 1272 823f 57d8 7b3f 01c7 833f
000000c0: f4ff 803f 72c9 813f 5ca5 833f 020a 7b3f
000000d0: 4728 7b3f 8d6a 823f 3bad 843f c61d 853f
000000e0: fb32 7e3f c037 813f de0e 823f caa0 7e3f
000000f0: fdfd 813f d11d 723f 5d93 7d3f 916c 793f
00000100: 4721 843f 2f98 7b3f 81be 7b3f 43c0 823f
00000110: 4f6c 7d3f 37fc 7d3f 6000 7e3f 6ae7 803f
00000120: aa96 7d3f 650e 813f 23a9 7c3f 4b5a 773f
00000130: f117 7d3f 016e 793f 9d40 803f f226 803f
00000140: 697b 7a3f 775e 803f d45d 803f 3e38 7f3f
00000150: acd1 733f 15ea 7f3f 652f 793f 4081 823f
00000160: ec74 803f 1802 7f3f a9fe 863f a4aa 7f3f
00000170: 2e5a 873f c49b 813f 5de6 7d3f 6040 7e3f
00000180: b135 7d3f 74ad 7e3f 02c1 753f b58c 783f
00000190: 817f 823f 4231 823f 455c 813f 7711 833f
000001a0: 6a3b 813f 0e44 833f c8f8 7c3f bf7a 793f
000001b0: 7d2f 7b3f 14c3 813f 6b91 783f 95e6 793f
000001c0: 91a9 7c3f 1ed5 803f e369 7b3f 665d 7e3f
000001d0: 83e3 873f c31d 7d3f c2c7 803f 1321 763f
000001e0: 457c 843f df6b 7d3f 5cb2 813f 5121 803f
000001f0: c114 823f a360 813f 578e 803f 41aa 783f
00000200: 3f5d 803f 9a96 7e3f 2306 723f 13bc 8b3f
00000210: a00e 803f 83f1 7d3f 21e9 893f 40e7 793f
00000220: 9c22 813f f19f 843f b8b2 7e3f ec4f 813f
00000230: 2652 7e3f bab0 853f f462 813f c695 8f3f
00000240: 71e6 813f 13f5 7c3f 92d3 783f a4e0 803f
00000250: 0f46 7f3f f674 823f fcce 823f 24d9 843f
00000260: 9447 843f 21bc 7d3f ca99 7a3f 5da3 7f3f
00000270: 7c5b 7d3f 1902 773f 9112 823f 4271 803f
00000280: fc45 7c3f fc81 813f 8727 7c3f facf 7b3f
00000290: d494 823f 2fd2 853f 978a 823f 0a70 7b3f
000002a0: f44c 7b3f dd84 813f e412 793f b934 833f
000002b0: 97d6 833f c591 7f3f be2a 823f 887b 743f
000002c0: 0f4c 893f 2c02 7e3f 2a48 813f 2884 7d3f
000002d0: 8e0e 7f3f 3cf4 7c3f 4ec7 7d3f cc53 843f
000002e0: 13da 7e3f 6c46 7f3f 1d2b 863f 0346 7d3f
000002f0: 2ccc 803f a984 853f fe81 753f f44f 823f
00000300: 708c 7b3f 718e 843f ad89 883f 4782 793f
00000310: f73c 7e3f 659b 7c3f 9b89 713f d93c 813f
1.0029337 0.9931135 0.9783582 0.98693603 0.98105234 1.069317 1.0252575 0.97520506
0.96252954 0.99965256 1.0301195 0.97658145 1.0469519 1.0137092 0.97852 0.99497616
1.0318891 0.96792275 1.0142294 1.005961 0.9764241 1.0002042 1.0338249 0.9795214
0.99306 1.000146 1.0525237 1.0216347 0.99820167 0.98622286 0.9872316 1.0216525
0.9619508 0.9888505 0.99498403 1.0821999 0.98561794 1.0084914 0.9748091 1.0289527
0.98971 0.977765 1.0159445 0.97674173 0.993599 1.0191061 0.98376983 1.0295106
1.0078111 1.0139601 1.0284839 0.98062146 0.98108333 1.0188767 1.0365366 1.0399711
0.9929654 1.0095139 1.0160787 0.99464095 1.0155636 0.94576746 0.99052984 0.97431284
1.0322655 0.9827909 0.9833756 1.0214924 0.9899339 0.99212974 0.9921932 1.0070622
0.9905802 1.0082518 0.9869558 0.9662215 0.98864657 0.9743348 1.0019718 1.0011885
0.9784456 1.0028828 1.0028634 0.99695194 0.9524181 0.99966556 0.97337943 1.0195694
1.0035682 0.9961257 1.0546466 0.9986975 1.0574396 1.0125661 0.9917963 0.9931698
0.9891005 0.9948342 0.9599763 0.970897 1.0195161 1.0171282 1.0106283 1.0239705
1.0096257 1.0255144 0.9881711 0.9745292 0.98119336 1.0137658 0.9709689 0.97617465
0.9869624 1.0065038 0.98208445 0.99361265 1.0616306 0.9887354 1.0060961 0.9614422
1.0350424 0.98992723 1.0132556 1.0010167 1.0162584 1.0107616 1.0043439 0.97134787
1.0028456 0.9944855 0.94540614 1.0916771 1.0004463 0.9919664 1.077427 0.97618484
1.0088687 1.036131 0.99491453 1.0102515 0.993441 1.0444558 1.0108323 1.1217582
1.014845 0.98811454 0.9719783 1.0068555 0.99716276 1.0191944 1.0219417 1.0378766
1.0334344 0.99115187 0.97890913 0.9985865 0.9896772 0.96487576 1.0161916 1.0034564
0.9854429 1.0117793 0.98497814 0.9836422 1.0201669 1.0454768 1.0198544 0.98217833
0.98164296 1.0118672 0.9729445 1.0250465 1.0299863 0.998318 1.0169294 0.95500994
1.0726336 0.99222064 1.0100148 0.9902978 0.99631584 0.9881017 0.9913224 1.0338073
0.99551505 0.9971683 1.0481907 0.98934954 1.0062308 1.043111 0.9590148 1.018065
0.98261166 1.035597 1.0667015 0.9746441 0.99311775 0.98674613 0.94350594 1.0096694

bias f4 [200]
00000000: 670e c73b a247 bc3d 19c6 2e3d 747e 043d
00000010: 683b 803d 3fe5 71bc f425 8c3d ba71 b0bb
00000020: eef9 2c3d f9fb 3a3d 6382 923c 3e94 05bd
00000030: 3e3d a839 e56a 3fbb 5aca 9ebc 58a2 49bd
00000040: 9b83 3bbc 8d18 c5bc 2f17 ebbc b406 cc3c
00000050: 79a6 71bd ae3c 46bb 2ab9 a8bb 3b10 e8bc
00000060: 5ed4 b23d e31f 543c 7b99 2b3c a79b a93c
00000070: 1a3b 13bc b1f8 ad3c 5fb5 813d b16b 89bb
00000080: 75ee 013d 19a8 593d 3be2 4e3d 290b 19be
00000090: c693 1abd cc03 bfba d783 eaba fc72 aabc
000000a0: 4b7a f63b ba51 42bd 2411 a7bd ea1d 0cbc
000000b0: b3d9 0d3d 8d52 5fbd 4847 323d f314 0fbd
000000c0: 908f 943d e952 e63c 7c28 733d 4550 47bd
000000d0: 036d fab9 0ecd 03bd 1b90 9d3d 2547 513d
000000e0: 72e1 d1bc 7f9a 143c 8b61 00be f62a 243b
000000f0: b23f a73c d12e fabc aa60 1dbd eacb 0fbb
00000100: c757 3abb b11c dc3c 4b6c ddbc bee4 91bc
00000110: 0ec9 2cba 4cf4 29bc fd9c 33bd cbeb 82bd
00000120: 8553 963c f236 223d 5612 17bd 167a c43c
00000130: fb82 923c f8b4 bcbd 2bee 3e3d 6043 e0bd
00000140: c0bf 9d3c 3f12 b3bb d43b 543d bbad 013c
00000150: db78 0abd 3f47 073d 9e3d 83bd 129b 793d
00000160: 95e5 e63d 84f6 35bd d392 a53d 2133 9a3d
00000170: a28b a4bc 5873 a4bd 8d7d f1bc cd28 07bc
00000180: 715d f93d 7cea 863d 7a74 eebc 2c89 1c3d
00000190: 5669 29bd 5e67 ef3b fa32 b3bc 5a64 5c3d
000001a0: 67f0 a1bc e043 4b3d c94a 7b3d 91db 89bc
000001b0: 313a c43d 7e9e 933d 421c aebc 91a6 6d3d
000001c0: 3a5f a7bc e5b9 a23b e3f3 043c 3bcf bb3c
000001d0: 5c25 f53b 3311 dc3d 8762 df3d 5e52 1abc
000001e0: 2c27 4ebd 5dae 573d 9e42 b63c f631 aa3d
000001f0: cc00 adbc eca1 60bd ff75 b5bd c3e0 9fbd
00000200: 1f6e 22bd 3dbd f53d 2e46 8d3c d9e1 583d
00000210: daf7 3b3d 42f2 b13c 8650 0fbd 4aad e53b
00000220: 2361 653d 3b25 70bd c0f1 b6bd ba9c 10bc
00000230: 89b7 1c3d 1bdd 35b9 5b47 0bbe 9153 d13c
00000240: 60f1 673d 40bc 1b3d 8481 2dbd f0fc 843d
00000250: 75d4 eabc 83c9 a93c 3f30 ca3c b912 b7bc
00000260: bdcd 213c 04fd b4bd 675f 433d 1988 9cbb
00000270: 7f15 93bb 90ff 993d 46ca 40bd 6789 503d
00000280: 87d1 b7bd 2de3 9fbd 91fd 973c 8f27 cebb
00000290: 8e49 b23d 2eb0 b63d c6d6 f8bc 1b2a dabc
000002a0: c2ff 433d 432c ae3d 41c8 7fbc 1baf 2cbc
000002b0: bb8a 46bd 9213 1cbd 544b b03d eec8 22bd
000002c0: 961c 9c3c b810 023d 09c0 113c 6f93 d03d
000002d0: 43c1 e2bd 08ab cd3c 0438 b1bc bd8f 463c
000002e0: 6c79 2a3d 0006 b2bc b2d2 38bd b3c7 8cbd
000002f0: fa37 9f3d 49a5 e0bc 4457 9d3c da70 fabd
00000300: 4fab 863d 748a 973d ca1e efbc 096c 4a3d
00000310: 07c2 aa3c a89e 873b d69f 04bd ecfa 87bd
0.006074715 0.091933504 0.04266939 0.032347158 0.06261331 -0.014764129 0.068431765 -0.005384651
0.04223054 0.045650456 0.017884439 -0.032612078 0.00032089086 -0.0029208001 -0.019383598 -0.04922709
-0.011444951 -0.024059558 -0.028697578 0.02490554 -0.05899665 -0.003024857 -0.0051490264 -0.028328052
0.08731912 0.0129470555 0.010473604 0.020704104 -0.008986259 0.02123675 0.06333422 -0.004193746
0.03172155 0.053138826 0.05050872 -0.14945664 -0.037738584 -0.0014573275 -0.0017892075 -0.020806782
0.0075219027 -0.04744122 -0.08157566 -0.008552054 0.034631442 -0.054522086 0.04352501 -0.034932088
0.07253945 0.028115707 0.05936478 -0.048660535 -0.00047764936 -0.032177977 0.076935016 0.05109324
-0.025620196 0.009070038 -0.1253721 0.002505002 0.020416114 -0.030539902 -0.038422264 -0.002194161
-0.0028433667 0.02686915 -0.027029177 -0.017809268 -0.0006591239 -0.010373186 -0.043850888 -0.0639263
0.018350372 0.03960318 -0.03688272 0.023983996 0.017884722 -0.092142045 0.046613853 -0.10950351
0.019256473 -0.0054648216 0.05181487 0.007914956 -0.033806663 0.03302693 -0.06408237 0.060938902
0.11274258 -0.04442455 0.08084645 0.07529283 -0.020086113 -0.080298126 -0.029478813 -0.008249474
0.12176026 0.06587693 -0.029108275 0.038216755 -0.04136022 0.0073060235 -0.021874893 0.05380664
-0.019767953 0.049625278 0.061350618 -0.01682833 0.09581412 0.07207964 -0.021253709 0.05802018
-0.02043115 0.004966008 0.008114788 0.022925964 0.00748126 0.10745468 0.109074645 -0.009419052
-0.050330326 0.05265652 0.022248562 0.083103105 -0.021118544 -0.05484192 -0.088603966 -0.07806542
-0.0396558 0.11998985 0.017245378 0.05294976 0.045890667 0.021721963 -0.034988903 0.007009183
0.05600084 -0.058629256 -0.08932829 -0.008826429 0.03826097 -0.00017343873 -0.13601439 0.025552543
0.056626678 0.038021326 -0.042359844 0.064935565 -0.02866576 0.020725971 0.024681209 -0.022347795
0.009875712 -0.088373214 0.047698405 -0.0047769663 -0.0044886465 0.07519448 -0.047067903 0.050912287
-0.08975511 -0.07807002 0.018553527 -0.006291337 0.08705436 0.08920322 -0.03037585 -0.026631406
0.04785133 0.08504536 -0.015611709 -0.010539795 -0.048472147 -0.0381046 0.08608118 -0.039742403
0.0190566 0.031754225 0.008895882 0.10184371 -0.11072018 0.025105968 -0.021633156 0.012119231
0.041619703 -0.021731377 -0.04512281 -0.06874027 0.077743486 -0.027422564 0.01920665 -0.12228556
0.06575643 0.07399455 -0.029189486 0.049419437 0.020844473 0.0041387863 -0.032378994 -0.066396564

running_mean f4 [200]
00000000: 4987 2d3e cb39 963e be07 303e 0254 7a3e
00000010: da50 a23e 1e8d 543e 0233 6f3e c076 433e
00000020: 736d 7c3e 4831 6a3e 1da2 3c3e a5db 7c3e
00000030: 49c2 143e 2ab8 d93d 800a 273e 1214 933e
00000040: 0792 843e 5749 813e 647e 803e 8f6c be3e
00000050: e015 8d3e 086f 213e 3918 4c3e 9822 853e
00000060: 19ad 9e3e 4c82 5c3e 5fc4 5b3e 05d0 6b3e
00000070: d41b 573e 1751 723e a22c 973e 3d6c 6c3e
00000080: 5ffb 863e d6d2 453e d6c7 113e 3cc2 ad3d
00000090: bc2d 583e 73be 593e d8fc 623e 478d 5a3e
000000a0: 266f b23e c221 0a3e 734c 923e 09cc 383e
000000b0: 5146 783e e618 5c3e bd6f ac3e 832f 493e
000000c0: 29b3 673e 07a9 5d3e 1e65 813e ae28 283e
000000d0: 78fb 9e3e d21b 2c3e 79f9 773e d99c 653e
000000e0: e2a0 873e f99c 543e d505 253e d7b7 a63e
000000f0: 5b7c 4f3e 09c3 793e bef3 9a3e c97f 7d3e
00000100: eadc 503e 9a4d 9e3e c017 ea3d d5eb 3c3e
00000110: 59ca 553e 1e44 433e a8f0 933e 5eac 823e
00000120: da2f 503e 6dfc 613e 4764 583e 850d 653e
00000130: f17c 873e 37bc 9a3e d172 743e 3a6d 503e
00000140: acf2 043e f607 583e f581 393e 6134 bb3e
00000150: 74f3 993e 5c34 843e 4efc b63e dbb7 183e
00000160: 361c 393e ea47 2f3e 7503 293e acf6 3c3e
00000170: db71 243e bfa6 3a3e 6a06 8c3e 13de 7c3e
00000180: 9d67 6f3e d072 4b3e fd62 2d3e 5484 663e
00000190: cdec 933e 8bef 733e 8da9 4a3e 8df1 243e
000001a0: c50a 413e 0246 8e3e 4e08 193e 6d87 813e
000001b0: c7c4 253e c15a 563e bc4e c03e f9ea 3e3e
000001c0: d4f7 533e 32d9 9f3e 3a8f 403e b65f 633e
000001d0: 0a70 1f3e 5a9d 243e 08db 383e a51a 5a3e
000001e0: 8c97 583e 1bfb 903e 697c 7a3e 74d7 373e
000001f0: 7c4b f13d 1cee 533e f57c 333e 24f4 8e3e
00000200: e7cd 8f3e 0906 693e 9b07 a13e 1081 463e
00000210: 4756 9b3e 2e48 573e b166 2e3e 0dd1 6a3e
00000220: 3605 ac3e 5995 943e afff 8d3e b63d 563e
00000230: b2c3 6d3e 52c2 c93d 4a28 693e 3385 2b3e
00000240: 5e96 a13e 160e 883e b73e 233e 5487 a53e
00000250: 05ba 8c3e 787c 2b3e 6373 403e a8b3 613e
00000260: a68e 643e b594 923d b6b9 923e 607c 653e
00000270: ae6c 4f3e a30c a23e fbc4 573e 4c3e 7a3e
00000280: 990e 283e b03b 2e3e 4733 433e 0511 1a3e
00000290: d376 8a3e e82d 143e fa67 9d3e 16b4 503e
000002a0: 9559 3c3e 76fe 3d3e adca 843e 9daa 803e
000002b0: 4f99 873e 3e3c 143e 5b31 643e cc43 553e
000002c0: 49c4 1b3e b12e 883e 9489 5f3e ff65 3b3e
000002d0: 050d 443e 8efe 563e bba2 983e 5fee 8e3e
000002e0: 2261 973e d69d 593e 6267 033e 101c 873e
000002f0: 6696 ac3e 9936 6b3e 1694 953e 5e6b 0b3e
00000300: 1670 823e 28b2 503e e0a0 4d3e f734 783e
00000310: 6a45 833e 6285 7a3e 110c 213e adbf 393e
0.16946138 0.29340968 0.17190453 0.24446109 0.3170231 0.20756957 0.23359302 0.19088268
0.24651127 0.22870362 0.18421216 0.24693163 0.14527239 0.1063083 0.16312599 0.2872625
0.2589266 0.25251266 0.25096428 0.371922 0.27555752 0.15765011 0.19931115 0.26002955
0.30991438 0.2153408 0.21461628 0.23028572 0.2100671 0.23663746 0.2952624 0.23088165
0.26363656 0.19318709 0.14236388 0.08484313 0.21111196 0.21264057 0.22166765 0.21342956
0.34850425 0.1348944 0.2857395 0.18046583 0.24245574 0.21493873 0.33679 0.1964703
0.22626938 0.2164651 0.2527246 0.16421768 0.3105123 0.16807488 0.2421626 0.22423114
0.2648993 0.20763005 0.16115506 0.32562134 0.20262282 0.24390806 0.30264086 0.24755777
0.20396772 0.3091858 0.11430311 0.18449338 0.20877971 0.19068953 0.28894544 0.2552213
0.20330754 0.22068949 0.21132003 0.22368439 0.2646251 0.30221722 0.23871924 0.20354167
0.12983197 0.21096787 0.18115981 0.365634 0.30068552 0.25821197 0.35739368 0.14913885
0.18077168 0.17117277 0.16505225 0.18453473 0.16059057 0.18227671 0.27348644 0.2469409
0.23379369 0.19868016 0.16932292 0.22511417 0.28891602 0.23821847 0.19791241 0.1610777
0.18851765 0.27787787 0.14944574 0.25298634 0.16188346 0.20933057 0.3756007 0.18644322
0.20700008 0.31220394 0.18804637 0.2220448 0.15570083 0.1607565 0.18052304 0.21299227
0.2115156 0.28316578 0.24461521 0.17953283 0.117819756 0.206963 0.17528136 0.2792064
0.2808678 0.22756208 0.31451115 0.19385171 0.30339262 0.21023628 0.17031361 0.22931309
0.33597726 0.29020193 0.27734134 0.20921978 0.23219183 0.09851517 0.22769275 0.1675003
0.31560034 0.26573247 0.15941893 0.3232981 0.27485672 0.167467 0.18794017 0.2204119
0.22320041 0.0715727 0.2865731 0.22410727 0.20256302 0.31650266 0.21071236 0.24437827
0.16411819 0.17014956 0.1906253 0.15045555 0.2704378 0.14470637 0.3074339 0.20381197
0.18393548 0.185541 0.2593588 0.25130168 0.26484153 0.14476106 0.22284453 0.20826644
0.15211596 0.26598123 0.21829826 0.18300627 0.19145592 0.20995542 0.29811653 0.27916238
0.29566294 0.21251616 0.12832406 0.26388597 0.33708495 0.22970046 0.29214543 0.13615176
0.2547614 0.20380461 0.200809 0.24238954 0.25638896 0.24464944 0.15727259 0.18139525

running_var f4 [200]
00000000: 931e 573d 5468 073e 1f54 a83d db65 193e
00000010: bb17 5b3e 2e5f 743d 9505 c43d 3e73 dc3d
00000020: f1fa 443e ecc7 013e 522f 953d 4124 ed3d
00000030: 6644 923d 5c29 0d3d ffbe 853d 81df 443e
00000040: 823b 0c3e 4829 363e 11e9 1b3e 15b9 da3e
00000050: 226e f23d acf1 2b3d c155 123e ef1a 093e
00000060: b664 093e b68a 053e 6e07 a13d 72cc 043e
00000070: 83fe d23d 2f1e bf3d fdb4 633e 0683 d83d
00000080: edcb 0a3e dec3 c93d 3e30 573d c072 e73c
00000090: 0678 af3d 2ce2 f23d 74f8 b03d fe6e 943d
000000a0: 6f61 703e ff2a 7b3d daf0 0f3e 7d71 ac3d
000000b0: c4bc 103e 3409 ef3d 97e9 683e af8c b03d
000000c0: 970d e03d b6d8 f43d 420b d53d 88f6 cd3d
000000d0: 9ad3 603e afa1 a63d 936e be3d f1b2 a23d
000000e0: de76 0a3e 825b 103e 9c4d 573d 39d8 893e
000000f0: 5140 de3d b767 243e ffb2 163e cee9 093e
00000100: fdd6 f93d 35c7 113e 003e 0f3d e5ca cf3d
00000110: e850 a63d 62a1 e33d d88e 7f3e 0eac 303e
00000120: 0999 c53d dd3c 1f3e ce26 0a3e 0e75 083e
00000130: 6d30 0c3e 324c 6d3e 4bbd 093e dc8d bb3d
00000140: 6669 183d 7da6 f73d fec9 cb3d 2901 2b3e
00000150: 4297 2e3e cb96 313e 7c6b 453e 79af 593d
00000160: 4808 9f3d 2212 963d 516f 723d 5106 ab3d
00000170: 2070 9a3d 40eb d43d 1e8d d23d 98b6 1d3e
00000180: 1a75 e13d cc57 0a3e d3ba a83d c50f f43d
00000190: 8e01 353e 4b2c 7e3e f24e d43d 0859 823d
000001a0: 20a0 c63d be8f 7c3e 88fe 593d f1ff 023e
000001b0: 9908 a63d 8301 7d3d b095 833e d601 af3d
000001c0: 925e dd3d 5083 5d3e de15 b03d f8d9 cd3d
000001d0: ab56 173d be7b 703d 31fd 783d ebeb cd3d
000001e0: 5ac7 b73d 9864 803e 700b 0f3e 9976 8d3d
000001f0: 3ca5 3f3d f4ff 283e 9bac 683d 095b 413e
00000200: f9b7 593e 45b8 cb3d a710 523e b053 863d
00000210: a885 4a3e f182 d93d a4eb 973d 96fc f43d
00000220: 9b91 3d3e 80a1 513e 082d 543e 9de7 8f3d
00000230: b862 b53d 3c01 293d 5aa7 ca3d f73a 8e3d
00000240: 13de 553e a5c0 0c3e 69fa a33d daec 373e
00000250: 40d0 463e 56b2 8e3d 5432 a33d 2da6 ab3d
00000260: 0b6b ff3d dec6 ca3c f7a0 a93e 9861 aa3d
00000270: d5de 013e 4968 283e 7b3e 9d3d cc57 fa3d
00000280: a940 8b3d 03f1 c83d 82f9 cd3d 3c9b 6a3d
00000290: ffeb 023e 9b5b 863d fbd4 a43e e66a a53d
000002a0: 7c86 803d ad59 093e ff50 533e 062a fe3d
000002b0: d422 133e 4880 513d e321 b73d 2730 aa3d
000002c0: 2fc8 3d3d c827 f53d fe92 8b3d 2968 9d3d
000002d0: 7d5a cf3d 7741 093e 1c1a 613e b039 453e
000002e0: 2b7d 4d3e 7727 b33d 538a 903d ce28 2e3e
000002f0: e662 623e 1fee f93d 15ac 663e 8b54 2c3d
00000300: e400 2d3e 0369 d03d 6e43 a13d 946f ed3d
00000310: b45a 2a3e a465 ed3d 4f73 893d 586c 853d
0.052519392 0.13223392 0.0821917 0.14980261 0.21395771 0.059661083 0.09571377 0.10764168
0.19236352 0.1267392 0.07284416 0.115791805 0.07141952 0.03446327 0.0653057 0.19225885
0.13694575 0.17789185 0.15225627 0.4271933 0.118374124 0.041978523 0.14290525 0.1338918
0.13417324 0.13041195 0.07862745 0.12968615 0.103024505 0.09331929 0.2223701 0.10571866
0.13554354 0.09851812 0.05253624 0.02825296 0.085678145 0.11859545 0.08641139 0.072477326
0.23474668 0.0613203 0.14056721 0.08420084 0.14134508 0.11671677 0.22745357 0.08620583
0.10940092 0.11955397 0.10402538 0.10056788 0.2195572 0.081363074 0.09298434 0.079442866
0.13521907 0.14097407 0.05256425 0.26922777 0.10852111 0.16055189 0.14716719 0.13468096
0.12199209 0.14236148 0.034971237 0.10146121 0.081209004 0.11114766 0.24956834 0.17253134
0.0964833 0.15550561 0.13491365 0.13325903 0.13690348 0.23173597 0.13451116 0.09157917
0.03720989 0.12092302 0.09950636 0.16699661 0.17049888 0.17342679 0.19279283 0.05314586
0.077652514 0.07327677 0.05918819 0.08350814 0.075409174 0.10396433 0.10280822 0.15401685
0.110086635 0.13510054 0.08238759 0.1191707 0.17676374 0.24821584 0.1036662 0.063646376
0.0969851 0.24664208 0.053221256 0.12792946 0.081071086 0.06176902 0.2570014 0.08545272
0.108090535 0.21632123 0.08597921 0.1005134 0.036947887 0.05871176 0.060788337 0.100547634
0.0897357 0.25076747 0.13969207 0.06907386 0.04678844 0.16503888 0.056805234 0.18882383
0.21261586 0.09947256 0.20514165 0.06558931 0.19777548 0.10620678 0.07417992 0.119622394
0.18512575 0.20471764 0.20720303 0.070265986 0.0885672 0.041260943 0.09895201 0.069448404
0.20885496 0.13745363 0.08006746 0.17961445 0.19415379 0.06967609 0.07968584 0.08381305
0.12471589 0.02475303 0.3313062 0.08319396 0.1268266 0.16446032 0.07677933 0.12223777
0.06799442 0.09811594 0.100573555 0.05727695 0.12785338 0.06560441 0.3219374 0.0807703
0.06275651 0.13413115 0.20636366 0.12410359 0.14368755 0.05114773 0.0894201 0.083099656
0.046333488 0.11970478 0.06815146 0.076858826 0.10124681 0.13403879 0.21982616 0.19260287
0.20067279 0.08747762 0.07057633 0.17007753 0.2210804 0.12203621 0.22526582 0.042072814
0.16894871 0.101762794 0.07874189 0.115935475 0.16636163 0.11591652 0.067114465 0.065148056

weight f4 [100, 200]
00000000: a19a 693d 190f 8c3c 2cdd 283d fe4e 72bd
00000010: b341 75bd b5f7 b1bd 6b71 bbbc b793 71bc
00000020: 4ace 753d 0ff4 22bd 360f f239 7740 73bb
00000030: cd4b a53d b0bd f93a 6dda b13d 175b 423d
00000040: 7a5f ea3c 8046 3f3d 4c84 c23c 77c1 1abd
00000050: dd10 8ebc 6339 b33d 0b6a a53b 0a54 e5bc
00000060: f89a afbc b57a 413c 31fc 1c3d 2f98 efbb
00000070: aa69 0fbd 9cab 31bd ca88 a5bc abd0 863d
00000080: 7e5e 813c 5460 89bd 7a06 0e3c 1418 ec3d
00000090: f094 debc 60ef 27bc b743 4e3d 705c 853d
000000a0: 778f 88bd 8655 8ebd 8ee3 aebc 939c 3f3d
000000b0: bc4e 01bd 134e 283d 7041 2d3d 049f 4ebc
000000c0: 9cdc 45bd 7ae5 23bd 89a8 7d3d f123 a33d
000000d0: 71f0 513d f15b 3c3d f7de 103b c68f 04bd
000000e0: 463d 07bc 5fe5 aa3a b83f 223c 85ad 80bd
000000f0: 2f89 94bd bda3 ff3c 413e bc3d fce0 f1bc
00000100: 8adf efbd 5c2b 0dbd aa0c 81bd 43b0 f33c
00000110: 43c7 9f3d 4413 c03b 317b f73c 3caf 913d
00000120: 0f23 953d fdfa 793d d35f 2e3d 6169 45ba
00000130: 3100 833c 6572 12bd fb75 47bd 3575 153d
00000140: 019b a83c 894d 27bd 7980 99bd 2f4e 1fbd
00000150: b8bd 423d 974e 863d 601a 4bbd ca6e b73b
00000160: 0524 e4bb 2f97 693d b84f d6bd 1f5e 3ebd
00000170: 8ea4 8bbd dd1a 863d f0a3 59bc 15af 653d
00000180: 3ad0 883c 0155 57bd 0279 3ebc 5ae6 d0bc
00000190: 2275 7f3d 63a2 00bd b72d 583c 8e56 c4bc
000001a0: 68fa 44bb 79ac 76bd aee1 83bd 949f f23c
000001b0: 9cb8 11bc c858 71ba e196 74bc 96f9 75bd
000001c0: cdc0 823a 7ebb 96bd 5ac4 6cbd aa5b 3fbd
000001d0: 8cec 6dbd c572 95bd 9650 2e3d 5839 c63c
000001e0: 46bc 573d c94b 89bd c13d 603d 81b4 b33c
000001f0: f197 983d c9fe 97bc d334 6e3d b8ce 3bbd
00000200: da4d e13c 9e31 d73c 727c 263d 0537 09be
00000210: 52f8 29bd c765 acbc fb96 903d ff00 e4bb
00000220: 17f1 a73b 77ff b03a 107e b53c 41a5 0b3c
00000230: eb1e 66bd ad08 763b d844 bf3d db5e 003d
00000240: ff53 f0bc c663 aa3d dff0 333d c7af 6abd
00000250: 70c3 14ba 860c 8abd e92d 8f3c cdbd 29bd
00000260: abe8 1cbc c55b c23d ea79 a8bc 863c 2cbd
00000270: a574 15bd 1628 85bd d35d a33d c07a 48bc
00000280: 2e34 2abc cd23 253d 8acd 4fbd 3518 53bd
00000290: 7571 373d a751 49bd 8b21 89bd 9407 e4bb
000002a0: ef7d 8dbc 11af c73a bf61 323d d22b 97bd
000002b0: cbb9 b13d 385f 66bd b99d 0a3c 7407 efbb
000002c0: 60d3 c03b 9a63 683d 0495 c8bd 1899 06bc
000002d0: 7939 8b3d 59e0 d03c d930 8ebc 53d9 95bc
000002e0: 0f86 943d d69b 13bd 964e 223d 45c0 8bbc
000002f0: 8a35 013d d440 a3bc 959c 993a 7ec8 b53c
00000300: 9cd8 943d fa85 58bd 921b b9bd 8757 4bbd
00000310: 18db afbd 2bc5 e4bc 8830 703c 5cc6 7ebc
00000320: 9af9 693d 61ac 30bd be0b 0cbc 39f8 a4b9
00000330: c524 58bd 564d 3fbd e00a 16bd 81ef 79bd
00000340: 3fe1 60ba e0bc 9c3d 8980 563d a7ca 853d
00000350: 1573 c13b c485 7c3a 3835 cf3d 7888 c5bc
00000360: 8e45 32bd 301d 353b 114e 113d 7e17 4ebd
00000370: 5b95 7e3c 5c3f 80bc 0533 aebc a6e3 183c
00000380: 8be3 11bd f75f a2bd 723f 5c3c 66b9 c8bc
00000390: c6b1 9d3d 5da4 dc37 f53b 86bd 1009 1ebb
000003a0: db92 17bd 8c25 b73c 9c9b acbc 6013 62bb
000003b0: 9556 003d 3b75 5abd 7a0a bdbc 5e77 923d
000003c0: 97bf d2bc ba14 2fbd 5e81 043d d4ef df3b
000003d0: 85dd 773d f698 00bd c30d bc3c 0cca a3bc
000003e0: 1f0e 87bd e076 06bd 50fb ebbd 5f10 963d
000003f0: 0f8c 673c 3b06 5cbd c0e8 7b3d 1f78 cd3c
0.05703223 0.017097043 0.04122655 -0.059157364 -0.05987711 -0.086898245 -0.02288123 -0.014744691
0.060011186 -0.039783534 0.0004616917 -0.0037117281 0.080710985 0.0019053724 0.086842395 0.04745015
0.02860998 0.046698093 0.023744725 -0.03778216 -0.017342025 0.0875118 0.0050480417 -0.027994175
-0.0214362 0.011809041 0.038326446 -0.007311843 -0.03501288 -0.04337655 -0.020206828 0.06582769
0.015792128 -0.06707826 0.008668536 0.1152803 -0.027170628 -0.010249943 0.050357547 0.06511772
-0.06667989 -0.06949906 -0.02134874 0.04678018 -0.031569228 0.041090082 0.042298734 -0.0126111545
-0.048306093 -0.040013768 0.061928306 0.0796584 0.051254693 0.04598612 0.0022105554 -0.032363676
-0.008254355 0.0013038329 0.009902887 -0.06283096 -0.07252728 0.031206006 0.091915615 -0.029526226
-0.117125586 -0.03446518 -0.063012436 0.029747134 0.07801678 0.0058616716 0.03021011 0.071135014
0.072820775 0.061030377 0.042571854 -0.00075306563 0.015991302 -0.035753626 -0.0486965 0.03648873
0.020581724 -0.040845428 -0.07495207 -0.03889292 0.04754421 0.065579586 -0.0495857 0.005597924
-0.0069623017 0.057028946 -0.10464424 -0.04647648 -0.06818496 0.065480925 -0.013283715 0.056075174
0.016700853 -0.0525713 -0.01162553 -0.025500465 0.062367566 -0.031404864 0.013194493 -0.023967054
-0.003005648 -0.060223076 -0.06439529 0.029617108 -0.008894112 -0.000920665 -0.01492855 -0.060052477
0.0009975672 -0.0735998 -0.057804443 -0.046718277 -0.058086917 -0.07297281 0.04255732 0.024197266
0.052669786 -0.06703908 0.054746393 0.021936657 0.074508555 -0.018554108 0.058155846 -0.04585144
0.027502943 0.026268777 0.040646024 -0.13399895 -0.041496582 -0.021044625 0.07060047 -0.0069581266
0.0051251757 0.0013503869 0.022154838 0.008523286 -0.05618183 0.0037541792 0.09339303 0.03134046
-0.029336927 0.083198115 0.043930884 -0.05729654 -0.00056748744 -0.0674067 0.017477946 -0.041440774
-0.009576957 0.0949016 -0.020565946 -0.042049907 -0.036488194 -0.065017864 0.0797688 -0.012236297
-0.010388417 0.040317345 -0.050733127 -0.051536757 0.044785935 -0.049150135 -0.06695851 -0.006958911
-0.017271964 0.0015234669 0.04355025 -0.07381405 0.08678015 -0.05624315 0.008460456 -0.0072945897
0.005884573 0.056735612 -0.097940475 -0.008215211 0.067980714 0.025497602 -0.017357277 -0.018292105
0.07252132 -0.03603729 0.039625727 -0.017059455 0.0315452 -0.019928373 0.0011719639 0.022190329
0.072678775 -0.052862145 -0.09038462 -0.04964402 -0.08586711 -0.027926048 0.014660008 -0.015550222
0.057122804 -0.043133143 -0.008547721 -0.00031465458 -0.05276944 -0.046704613 -0.036631465 -0.061019424
-0.0008578486 0.076532125 0.052368674 0.065327935 0.0059036114 0.000963297 0.101175725 -0.024112925
-0.043523364 0.0027635805 0.03547484 -0.050315373 0.015538539 -0.015655212 -0.021264562 0.009331619
-0.035617393 -0.0792846 0.013442861 -0.024502467 0.07699923 2.6302581e-05 -0.06554405 -0.0024114288
-0.037005287 0.022356771 -0.021070294 -0.0034496412 0.03133257 -0.053334456 -0.023076285 0.07151674
-0.025726123 -0.042744376 0.032349937 0.0068340097 0.06051399 -0.031395875 0.02295578 -0.019993804
-0.0659449 -0.03282821 -0.115225434 0.07327341 0.014132514 -0.05371688 0.061501265 0.025081692

weight f4 [100]
00000000: 5c28 793f 4827 793f 516c 763f d5b0 773f
00000010: 221e 693f b68a 753f 0703 6e3f edd4 733f
00000020: da34 6b3f 1aff 663f d3a9 6a3f cd43 6c3f
00000030: 7975 6a3f 291d 733f 251a 783f f4cc 793f
00000040: 3a11 723f af58 733f 9467 723f 65bf 673f
00000050: 4409 753f fb8f 753f 1d46 713f 8199 743f
00000060: 4a8a 763f 0426 743f ea45 733f 2991 753f
00000070: 4ab0 763f 29e1 793f 310c 763f 78e4 7a3f
00000080: 7b0e 5c3f 19e4 773f 4f35 723f 3993 753f
00000090: 39ba 753f 6605 793f 4bf1 783f 1b5c 783f
000000a0: 5be4 743f d7f4 763f 1eb9 5c3f afb5 753f
000000b0: 4b24 743f 8ee2 713f 7e22 743f ad43 6c3f
000000c0: cc2c 7e3f 91fa 723f 7466 773f a33d 763f
000000d0: f598 793f 7aa3 763f c8fe 6e3f 4e9b 6e3f
000000e0: af41 773f 2a39 6f3f 3ffe 773f e267 7a3f
000000f0: 9f92 713f 4e6c 763f 1fbc 753f ac91 763f
00000100: ef20 533f 7d01 773f 1cf3 7d3f b0a5 733f
00000110: c07b 7d3f 9a6f 743f 2ec5 763f c574 763f
00000120: 54f0 663f c197 703f 99d5 763f a5af 693f
00000130: b6e6 733f cf23 763f f80d 6f3f 1e81 743f
00000140: c88a 7d3f 0af7 733f d7c9 743f cfb8 743f
00000150: 3d63 7a3f cc1f 743f 70b7 723f b490 763f
00000160: 9ac9 753f 99a3 703f 2a68 7a3f e459 6d3f
00000170: eb0d 793f fb44 783f 2d75 733f 7489 763f
00000180: b806 7d3f 636f 743f 84c7 783f aae3 763f
0.9732721 0.97325563 0.9625903 0.967542 0.91061604 0.9591478 0.9297337 0.95246774
0.9187752 0.90233004 0.9166538 0.92290956 0.915855 0.9496637 0.96914893 0.9757836
0.94557536 0.95057195 0.946893 0.9052642 0.95717263 0.9592282 0.9424761 0.9554673
0.9630476 0.9537051 0.95028555 0.9592462 0.96362746 0.9760919 0.9611235 0.98004866
0.85959595 0.96832424 0.9461259 0.9592777 0.9598728 0.9727386 0.97243184 0.9701554
0.9566094 0.96467346 0.86219966 0.9598035 0.9536788 0.9448632 0.9536513 0.92290765
0.99287105 0.94913584 0.96640706 0.961878 0.9749902 0.96343195 0.93357515 0.93205726
0.965846 0.934466 0.96872324 0.9781476 0.9436435 0.9625901 0.95990175 0.9631603
0.8247213 0.96486646 0.9919908 0.95174694 0.9901695 0.9548279 0.9639462 0.96271926
0.9021046 0.9398156 0.96419674 0.9128364 0.9527391 0.9614839 0.9338069 0.9550952
0.9903989 0.95298827 0.95620483 0.95594496 0.97807676 0.9536102 0.94811153 0.9631455
0.96010745 0.9399963 0.9781519 0.9271529 0.9728686 0.96980256 0.9510067 0.96303487
0.98838377 0.9548246 0.97179437 0.9644114

bias f4 [100]
00000000: 4998 5fbb 056c 54bc 464b 973b d655 23bc
00000010: 49dd 443c 9c69 a63c 268a 43bb 6a9e 1abb
00000020: 7a44 173c 5427 c53c 8b18 2d3c 1f36 2dbb
00000030: a7f0 4e3d 07a1 63bc c82b fb3b f1d0 ba3c
00000040: 885d 553c 0a73 39ba 936a 053c afd5 8abc
00000050: 029c 6abc 72f0 dc3b 69ff 453a e5ea 45ba
00000060: 522d fb3b 52cf 0c3b f900 93bb 14f8 d7bb
00000070: e625 eb3b 786e 6b3b 15db be3b ab67 f8bb
00000080: af9f fcbc cb98 a0bc c8fe 2e3b 167b d539
00000090: d258 1c3c c572 eabb f6cc 31bc 198a 43ba
000000a0: 1924 8fbc 7722 38bb a02e 993c 7049 27bb
000000b0: dd9e 253c 750a 28bc 1f4d 7a3b 1c7e 00bc
000000c0: 76ee 953c 2985 1b3b 182f 5ab9 dd2f 8dba
000000d0: 4d12 3e3c b5cf 613b 59a4 9b3c 3daf 37bc
000000e0: 5d58 17bc f237 dcb9 ad8e 42bc 6e70 20b9
000000f0: 8f36 05bc eb03 94b9 d5fe 3f3c 5287 a1bb
00000100: f5f0 05bd a83d c43b 8768 0abc e200 9c3b
00000110: 2e8f a53b 4606 3dbb 36a2 b8ba 0a4d 2f3b
00000120: 8ff9 1dbb 5d6c cfbc 9703 f73b b979 e2bb
00000130: ea30 50bb f522 fd3b b54a baba 4224 ff3a
00000140: 854c 353b 6d0c 40bb 7856 a3ba b2ba acbb
00000150: 990c 3fbc 3aa3 f53b 6099 723b 8692 893a
00000160: 75d3 4eb9 4574 76bb 45aa 31bc cdec 583b
00000170: 3712 1d3a 0bdd a0ba be0e 50bc a9a5 393a
00000180: 319a 95bc 0be2 3fbc ec3a f5bb dacc 4bbc
-0.0034117869 -0.012965207 0.0046171276 -0.009969195 0.012015649 0.02031403 -0.0029836982 -0.0023592957
0.009232635 0.024066605 0.0105649335 -0.0026429964 0.050522473 -0.013893372 0.0076651312 0.02280471
0.013022788 -0.0007074332 0.008143085 -0.016947595 -0.014319422 0.0067425305 0.00075530127 -0.00075499556
0.0076653147 0.0021485877 -0.0044862 -0.0065908525 0.0071761487 0.0035923999 0.0058244565 -0.0075807176
-0.030837862 -0.019604107 0.0026702154 0.00040718232 0.009542661 -0.007154795 -0.010852089 -0.0007459238
-0.017473267 -0.0028096715 0.01869899 -0.002552595 0.010108677 -0.010256399 0.003819294 -0.007842567
0.018302184 0.0023730493 -0.00020807644 -0.0010771711 0.011601043 0.0034456078 0.018999266 -0.011211214
-0.009237376 -0.00042003352 -0.011874837 -0.00015300672 -0.008130684 -0.0002823168 0.011718472 -0.0049294615
-0.032700498 0.0059887953 -0.008447773 0.0047608474 0.0050524687 -0.002884285 -0.0014086429 0.00267488
-0.0024105047 -0.025320226 0.0075382697 -0.006911483 -0.0031767436 0.0077251145 -0.0014212938 0.0019465762
0.0027664017 -0.0029304281 -0.0012461683 -0.0052712793 -0.011660718 0.0074962648 0.0037017688 0.0010495938
-0.00019724465 -0.0037605923 -0.010843818 0.0033100129 0.0005991789 -0.0012272907 -0.012698827 0.0007081875
-0.018262 -0.011711608 -0.0074838307 -0.012438977

running_mean f4 [100]
00000000: 580b e23e 1bb2 be3e 9ff3 183f 1b56 0c3f
00000010: 3be0 d83e e35b a73e 7962 c83e c443 de3e
00000020: a185 d03e 2f15 fd3e dcbb b93e 189c 913e
00000030: 013e 0b3f ca21 763e f193 bf3e 6c3e 2b3f
00000040: 9117 9e3e dffc e93e cf6c 063f a6ee 2e3f
00000050: 811d f83e af9b cb3e d184 b03e d3d1 d83e
00000060: 9294 083f 76f8 fe3e 6e82 d43e 8a07 b63e
00000070: 6e10 b93e 23fd a23e 93e9 3e3f e812 e93e
00000080: 9497 373f 464d c83e a32f 263f d669 de3e
00000090: d0e2 153f 969e 063f 3445 1d3f 827f 043f
000000a0: e8a8 e53e 84ad d03e 789b 933f 9095 f83e
000000b0: 735f ba3e cc62 e43e d243 e83e d23d 2a3f
000000c0: 00fa f43e e6bd f53e 1064 cc3e f1fc cc3e
000000d0: 6b99 ed3e ee50 a13e 5050 ea3e 4990 9f3e
000000e0: abfe b63e 5a43 fc3e 3cb1 e73e 7440 f63e
000000f0: e80d ec3e 9931 f53e f13f c13e aeea dc3e
00000100: aa99 5d3f af61 ce3e fda5 d13e 5e77 d93e
00000110: 595f 123f 356e f73e 467c d53e 485c ce3e
00000120: bd46 0c3f 6c5b c73e 7d29 a63e a47a 1c3f
00000130: b6b2 153f 6e29 123f b66e ac3e 8aa1 e13e
00000140: 6115 cf3e f3cc 1f3f c920 e63e 8ca1 1b3f
00000150: 80ec 173f 6cc1 bf3e a536 ee3e 8e7a e33e
00000160: f442 043f 6068 ea3e b1b7 dc3e b898 0e3f
00000170: ba40 d73e b7ab b33e ff78 bf3e a9a6 083f
00000180: 83f0 ad3e b424 be3e bdf2 d43e 3082 fe3e
0.4414928 0.3724526 0.59746736 0.54818887 0.42358574 0.32687292 0.3913763 0.43411076
0.4072695 0.49430224 0.36276138 0.28439403 0.54391485 0.24036327 0.37417558 0.66892123
0.30877355 0.45700738 0.5250978 0.683329 0.4846001 0.39767215 0.3447633 0.42347583
0.533517 0.49798936 0.4150576 0.35552627 0.36145347 0.31833753 0.74575156 0.45522237
0.71715665 0.39121455 0.6491644 0.4344012 0.58549213 0.5258573 0.6143372 0.5175706
0.44855428 0.40757382 1.153182 0.48551607 0.36400947 0.44606626 0.45364243 0.6650058
0.47846985 0.47996444 0.39920092 0.4003673 0.4640611 0.31507057 0.457644 0.31164768
0.3574117 0.49270135 0.45252407 0.4809605 0.4610436 0.47889403 0.37744096 0.43147796
0.865626 0.40308902 0.40946952 0.42473882 0.5717674 0.4832627 0.41696376 0.4030478
0.5479544 0.38936937 0.32453528 0.61124635 0.58475816 0.57094467 0.33678216 0.44068557
0.40445998 0.624221 0.44946888 0.60793376 0.59345245 0.37452257 0.46526065 0.4442944
0.5166466 0.45782757 0.43108895 0.5570178 0.4204157 0.35091946 0.37397 0.53379303
0.33972558 0.37137377 0.41591445 0.497087

running_var f4 [100]
00000000: b546 133f 6d63 073f 8cf9 833f d103 6a3f
00000010: 5eb0 153f 8b7d 9d3e fd72 203f a86f 363f
00000020: 075f e23e a969 a23f ec0c ad3e 7658 523e
00000030: 6e8d 2e3f 705e 763e cb64 7c3e a753 cc3f
00000040: 4826 703e 63e0 473f f2fd 0c3f 0959 d33f
00000050: 613d 453f cc96 f03e ed48 b63e 5ed0 073f
00000060: a88a 113f 9f1c 063f c648 c93e e984 8c3e
00000070: b27d 9a3e d83d e93e e68b 6c3f 95ed 063f
00000080: 46c8 1140 3c17 d23e f552 653f 784e da3e
00000090: ef50 743f c0eb 403f 9161 aa3f 63a8 723f
000000a0: f757 fb3e dc66 0d3f d8df 2d40 7833 fa3e
000000b0: ff54 513f c0a9 443f fc9a 293f bb23 bc3f
000000c0: 12cd 753f 2f42 123f 1376 ec3e b7d0 b53e
000000d0: e2a5 f33e 8c0b 8a3e 4594 023f dcfc 083f
000000e0: adb6 053f 4843 6e3f e850 653f 445c 333f
000000f0: 2c3e 103f 6cca 1c3f 4299 ac3e 30ca ea3e
00000100: b380 fa3f 4524 023f e8f9 d93e 9fd8 cf3e
00000110: 7870 683f 72fc e73e 7dee 013f 1808 793f
00000120: 1a6d 3b3f 1be9 3a3f 9983 a73e 6112 743f
00000130: bf2a a43f a483 4d3f 6f11 053f c576 8b3f
00000140: 3b2c 1a3f 10c1 8d3f f900 293f 9a68 513f
00000150: 7b81 6a3f 4412 ff3e 3067 013f c46d 663f
00000160: 9fee 553f b2d7 ca3e 7d70 f53e edee f63e
00000170: 32be 403f 4e03 f83e c710 103f 90b4 763f
00000180: 56db 943e e76b e33e 52e3 1f3f 0da6 143f
0.57529765 0.52886087 1.0310531 0.91412073 0.5847224 0.30759844 0.6267546 0.71264124
0.44213125 1.2688495 0.3379892 0.20541558 0.68184555 0.24059463 0.24647824 1.5963029
0.23452103 0.7807676 0.5507499 1.6511546 0.7704678 0.4699005 0.35602513 0.5305232
0.568522 0.5238742 0.39313334 0.27445152 0.30174023 0.45554996 0.9240097 0.5270627
2.2778487 0.4103335 0.8957971 0.42637992 0.95435995 0.75359726 1.3311025 0.9478819
0.4909055 0.55235076 2.7167873 0.48867393 0.8177032 0.7682152 0.6625211 1.4698404
0.9601604 0.5713224 0.46183833 0.355108 0.47587496 0.26961935 0.5100749 0.5351083
0.52231866 0.93071413 0.8957658 0.7006266 0.56344867 0.6124637 0.33710676 0.45857382
1.9570526 0.5083659 0.42573476 0.40594956 0.90796614 0.45309788 0.5075453 0.97277975
0.7321335 0.7301194 0.3271759 0.95340544 1.2825545 0.8027899 0.51979727 1.089562
0.6022374 1.1074543 0.6601711 0.81800234 0.9160382 0.49818623 0.50548077 0.9001124
0.8356723 0.39617687 0.47937384 0.4822916 0.75290215 0.4844002 0.562756 0.96369267
0.2907359 0.4441826 0.6245624 0.58065873

weight f4 [1, 100]
00000000: 3ed9 723d 208c ca3c 61f6 67bd 5a14 9c3c
00000010: f859 37bc d2b1 8fbc 15d4 0cbb b61c 41bd
00000020: 2bd2 cfbc 0c6d d8ba 3e4f 993b 3c15 78bb
00000030: 1026 ccbb 5987 a33c dc8e 9cbc b0f6 cebc
00000040: b419 bebc bcdf e23c cbe5 3dbd 717c a43b
00000050: 05a1 ad3b 8d04 4bbd 561e cbbb f425 9c3c
00000060: 337c d4bc a866 3d3d d347 99bc 7d90 dbbb
00000070: cf8f b6bb eddd 3d3d b829 37bd a31a aabc
00000080: 34a2 b337 b072 c73c f77e 2cbd 8bd5 a2bc
00000090: 2d80 6abc f979 863d 052b 743d eb41 873d
000000a0: 4918 553b 606a 9d3c 4b9d 3fbc dc45 003d
000000b0: 5ef4 16bd f748 e13a 855f 543d 6211 473c
000000c0: 595c 033d f205 26bd d5da 4abc 40b1 3ebd
000000d0: b3b5 ed3c 882a 5a3c ba9c f4bc e0e5 08bc
000000e0: 9cfb 08bc 0aba 0fbc 84a5 843d 98e7 8b3c
000000f0: db04 a3bc bf44 0d3d 9908 9cbc 9ab0 233d
00000100: 2480 d3bb dd3a d9bc 6dec 3f3d 43e8 45bd
00000110: f725 f43c b968 623d 227c 4e3d b323 e73b
00000120: bde9 463b 1532 0bbc 323a fa3c 4716 0bbc
00000130: 4087 e03c 8b6d a2bc f703 44bc 8b4e 943b
00000140: f701 8f3d 3702 fb3b 3008 3c3c 90a2 cfbc
00000150: 5b78 a13d 599d a83c b4fb 09bd 215b a33b
00000160: 94f6 103d bcc9 0cbc 3c79 f53c 84be 193c
00000170: fdc7 403d c181 643d 22a7 bbbb 3645 2f3d
00000180: 1b63 0c3d 420d b0b9 c086 d83c 0e07 7f3d
0.05928921 0.02472502 -0.05663145 0.019052673 -0.011190884 -0.017540846 -0.0021488715 -0.04714652
-0.02536877 -0.0016511991 0.004678636 -0.0037854454 -0.0062301233 0.019962 -0.01911109 -0.025264114
-0.023205616 0.027694575 -0.046361726 0.0050197174 0.005298736 -0.049564887 -0.0061986847 0.019061066
-0.025938129 0.04624048 -0.018711006 -0.006700574 -0.0055713425 0.046354223 -0.04471752 -0.020764655
2.1413995e-05 0.02434668 -0.04211327 -0.019877216 -0.014312786 0.06566233 0.05961134 0.0660437
0.0032515696 0.019215763 -0.011695216 0.031316623 -0.03685414 0.0017187883 0.051848907 0.0121501405
0.03207049 -0.040533014 -0.012381275 -0.046555758 0.029017305 0.013315804 -0.02985989 -0.008355588
-0.00836077 -0.0087723825 0.06476882 0.017078206 -0.019899776 0.03448939 -0.019047068 0.039963342
-0.0064544845 -0.026517326 0.046856333 -0.048317205 0.02980326 0.055275653 0.05041135 0.007053816
0.0030351721 -0.008495827 0.030545328 -0.008489198 0.027408242 -0.019827625 -0.011963836 0.0045259646
0.06982797 0.007660176 0.011476561 -0.02534607 0.07884284 0.020582842 -0.03368731 0.0049852286
0.035391405 -0.008593019 0.029965036 0.009383801 0.047065724 0.055787805 -0.005726711 0.042790614
0.0342742 -0.00033579214 0.026431441 0.062262587
