AutogluonModels/ag-20240623_224224/models/NeuralNetFastAImodel-internals.pkl (torch, 148116 bytes, 15 tensors)

weight f4 [24]
00000000: 2558 813f b463 783f d985 813f 3116 803f
00000010: eefb 833f 0ea0 7d3f 7147 803f fbaa 823f
00000020: b6d0 813f cec5 7c3f aa3b 783f 1424 7b3f
00000030: 847b 803f 6cb3 723f 5d9a 823f 25dc 7d3f
00000040: 6ca8 813f 2e55 843f a10d 853f bf7c 7e3f
00000050: 48a0 7d3f b066 743f d1a6 813f 2f2c 753f
1.0105025 0.97027135 1.0118972 1.0006772 1.0311258 0.9907235 1.0021802 1.0208429
1.0141819 0.98739326 0.9696604 0.98101926 1.0037694 0.94805026 1.0203358 0.9916404
1.0129523 1.0338495 1.0394784 0.994091 0.99072695 0.9546919 1.0129033 0.95770544

bias f4 [24]
00000000: 0808 58bd 0f8d dcbc 0af8 c0bd 47ed b9bd
00000010: 1983 88bc e532 97bd dfd7 18bd f2f5 cc3c
00000020: 329e 1cbc 7353 673d dd2d a43c 26ac 92bc
00000030: a9d8 3a3d ba8a 6a3c 993f f4bc 8267 4b3d
00000040: 1ed3 033b 15da 013d 47ab 78bd af2a c13c
00000050: 141d 493b 673c 3a3c 24d8 343c 20be f1bc
-0.052742034 -0.02692273 -0.0942231 -0.0907846 -0.016664075 -0.07382754 -0.037315246 0.02501962
-0.009559201 0.056476068 0.0200414 -0.017904352 0.04561678 0.014315302 -0.029815482 0.04965926
0.002011485 0.03170212 -0.060710218 0.023579923 0.0030687498 0.01136694 0.01103786 -0.029509604

running_mean f4 [24]
00000000: c50f d1bc d7de 2bbc 35cc f0bb 8102 f5bc
00000010: 0480 83bd c82c b8bd 3e93 03bc cf8a b5bb
00000020: d795 473d 196f 643d bb47 733d 1fb5 32bd
00000030: 2adb 26bd 5168 1d3d 3f0e 9cbd 8a47 153d
00000040: 60e4 633a 1e6d d13c fe19 613d c528 ecbb
00000050: 93ab 50bd 9145 87bc c13a 94bd 227c 8d3b
-0.025520215 -0.010490141 -0.007348562 -0.02990842 -0.064209014 -0.08992916 -0.008030711 -0.005540229
0.048726883 0.055770013 0.05939458 -0.04362976 -0.040736355 0.038429562 -0.07619905 0.036445178
0.00086933933 0.025564726 0.05495643 -0.0072070085 -0.050944876 -0.016512664 -0.07237769 0.0043177763

running_var f4 [24]
00000000: 7ab1 7c3f e9b7 873f 32e0 823f 929d 873f
00000010: 1325 583f ed01 7d3f fd94 8a3f 35a3 803f
00000020: f681 843f 0abc 8c3f bbf5 ba3f 524c 613f
00000030: 9998 633f 1376 823f f1f0 853f efe5 9a3f
00000040: 3fde 533f 4d30 8c3f 8ccb 953f 2170 893f
00000050: 8dd8 823f a596 8b3f 61f7 843f 3aba 733f
0.9870831 1.0603 1.0224669 1.0594962 0.8443157 0.98831064 1.0826718 1.0049807
1.0352161 1.0994885 1.4606241 0.8800708 0.8890472 1.0192283 1.0464154 1.210142
0.82760996 1.095224 1.1702743 1.0737344 1.0222336 1.0905348 1.0387994 0.95206034

weight f4 [200, 24]
00000000: 40fa 18bd 4dfe ea3d c6f3 21be 9c00 03be
00000010: 8990 b2bd 9fdd 6f3d 2f7f c93c a42b 483e
00000020: 1725 a33c aead c13b a73f f2bd f104 2a3b
00000030: 186c 1ebe 8466 e2bd 285d a4bd 3acf 2ebb
00000040: 95f0 813d 2b19 163e e573 23be 91b8 a1bd
00000050: aba6 ea3d e236 383e 089f 96bc 1fca 293e
00000060: 2261 40bd 33de c6bb b281 363e c38e 3bbe
00000070: 1636 27be 5eb6 bdbd 4958 abbd 11d7 1f3e
00000080: 7fe0 29be bbdc eebd 9073 f2bd 1902 47be
00000090: 3caf ffbd 5232 213e 2047 943d 3a06 073e
000000a0: b671 423d ed33 d3bd bb3a d9bb 9fb1 3bbe
000000b0: 3159 34be d1f2 c9bd ec01 ed3d 3b6c d03d
000000c0: f47b a4bd 3cad 52ba 73c7 fc3d bd47 483e
000000d0: ea92 d13d 27df d93b d1ca dd3d 270c 32be
000000e0: a2d0 873c 55ec 16be ff7d a8bd b30c 5cbd
000000f0: 6856 133e 73ad 273d 00b5 00be 8189 8a3d
00000100: fb87 ee3d e851 99bd 7bbe ef3c c968 5e3d
00000110: 85ae d03d 1627 363e f6df 43be 4edd acbd
00000120: 6a51 513d 79c0 393e 310b 3c3e 46b0 1b3e
00000130: 500e b53c 26da 50be f2dc be3c 5dc7 15be
00000140: d1cd 1dbe 1e03 2c3e d4ec 303e 28ec 5abe
00000150: c282 e13c 2712 f8bb d61d 81bd e155 bdbd
00000160: 86fc a33d b908 aebd 3580 ab3d beb3 9f3d
00000170: 901f 103e 0b60 283d dff4 6cbe 3147 14be
00000180: e645 ad3d 1d3f 673d 6c2e f7bd be64 d8bd
00000190: 9d18 583e 7956 063e 6c2f 31bd b87b 56bd
000001a0: 873c 46be f216 21bd 1d89 1ebe df4f 26be
000001b0: 68dd 85bc 257a 753d 6ea5 dabd 0a14 013e
000001c0: 2f38 f6bd af90 5c3e 43b8 173e 2d67 31be
000001d0: 7932 07bd 1499 3fbc e7b0 913c 2e93 3e3d
000001e0: fa66 873d c518 f7bc 68fe 9fbd de59 df3d
000001f0: 5f25 6ebe 8077 0abe 285b 6ebd ab26 bbbd
00000200: a94e d4bd a51c fdbd e824 73ba a511 233c
00000210: d97f 2abe a9a0 93bc a6c1 253e d8e0 43bd
00000220: 75aa a7bc 8afa cbbc c52c 1d3d 9853 063e
00000230: 832f 303e 2050 fa3d 7daf 3b3e 7bc4 ecbc
00000240: 25ae 10be 7375 e9bd f573 233e ec7b 5a3c
00000250: 4491 d1bd 46f9 1fbe 37ef 18be 11e8 40be
00000260: c760 30bd d10b f43d 00bf 843d d4af 42be
00000270: 0fe3 043e a698 1bbe b577 84bd c9a4 b8bd
00000280: 216f 5abd 6999 1dbc da73 5cbe 4fe2 49be
00000290: 704e c9bb 59aa 693b 2d94 b2bd fa7a f63d
000002a0: 8caf 25be fe14 60bb 9b64 4c3e 8535 47bd
000002b0: 8023 453e 1345 9a3d 3ab7 3abe ce97 163e
000002c0: 1178 6ebc 2bf9 c8bd 8c32 3b3e 75a7 13be
000002d0: b7e8 323d 2029 5dbd 6423 333e 2004 2a3d
000002e0: f686 ad3d 30bf 8e3d abba a6bd a4d3 60bc
000002f0: 805e 34be 19ab 0c3e b8a7 243e 2321 d93d
00000300: 25cb 47be c527 103d e248 14be 19de 97bd
00000310: 6f62 efbd f034 e53d bd03 f4bd c383 163d
00000320: ad1e 243d 6c62 023e 92ac ebbd 53a1 03be
00000330: 13bc d7bd e050 003e 4e54 0abd e82c 4b3e
00000340: f728 d53d b087 063d 6c48 25bd 5ee1 80bc
00000350: cab4 e33c 8c7f acbc 37ef 263d a32e e73c
00000360: 7f9c 25be 7b8f 8dbd c6ff 3d3e 40e6 52be
00000370: 98ed afbc b15c 5c3e d7e6 a83d 6e02 483c
00000380: 2865 23be fcc4 b73d ea45 33be 7692 94bd
00000390: 220a b2bd 46ac 73bd b1c1 953c 0f50 3a3e
000003a0: 02ac f43c 42d2 273e 8c01 d43d faba c6bd
000003b0: 218f 893d ed71 0cbe cd20 93bd c228 863d
000003c0: bd08 e43d 38dd 253e 3051 85bd 3eb0 59bb
000003d0: 1b86 fb3d 44ae 4fbe ed4f 153e 7349 2fbe
000003e0: 2855 4f3c b38a 10bd fcc5 54bd a90c fe3c
000003f0: fef7 2f3e e780 4dbd 92b6 f0bd cd00 bebc
-0.037348032 0.11474285 -0.15815648 -0.12793201 -0.08718974 0.058560964 0.024596779 0.19547898
0.019915147 0.005910597 -0.11828547 0.0025942887 -0.15470922 -0.110547096 -0.08025581 -0.002667381
0.063447155 0.14658038 -0.15962179 -0.078965314 0.11457571 0.17989686 -0.018386379 0.1658101
-0.046967633 -0.0060689687 0.17822912 -0.18316178 -0.16329226 -0.092632994 -0.083664484 0.15609385
-0.16589545 -0.11663195 -0.11838448 -0.19434394 -0.12484595 0.15741852 0.072401285 0.13185969
0.047471724 -0.103126384 -0.0066293157 -0.18329476 -0.17612149 -0.09860767 0.11572632 0.10176893
-0.08031455 -0.0008036678 0.123427294 0.19558616 0.102331 0.0066489163 0.108297 -0.17387448
0.016578976 -0.14738591 -0.08227157 -0.05372305 0.1438843 0.0409369 -0.12569046 0.06764508
0.1164703 -0.074863255 0.029265633 0.05429915 0.10189537 0.17788348 -0.19128403 -0.08440648
0.051103033 0.18139829 0.18363644 0.15203962 0.022101551 -0.20395717 0.023298714 -0.14626832
-0.15410544 0.16798064 0.17277843 -0.21379149 0.02752817 -0.0075705233 -0.06304519 -0.09244896
0.080071494 -0.084977575 0.08374063 0.07797955 0.1407454 0.04110722 -0.23140286 -0.14480282
0.08460598 0.056456674 -0.12069401 -0.1056609 0.21103139 0.13118924 -0.043258116 -0.05236408
-0.19359027 -0.039328523 -0.15481992 -0.16241406 -0.016340926 0.05993094 -0.106760845 0.126053
-0.12022435 0.21539567 0.14816384 -0.17324515 -0.03300712 -0.0116942115 0.017784549 0.04652708
0.06611438 -0.030163178 -0.07812196 0.10905813 -0.23256443 -0.13522148 -0.058192402 -0.09138235
-0.10366566 -0.12358979 -0.0009275214 0.009952937 -0.16650333 -0.018020945 0.16187152 -0.04782185
-0.020467022 -0.02489974 0.038372774 0.13117826 0.17205624 0.12222314 0.18328662 -0.028902283
-0.14128931 -0.11399355 0.15962203 0.013335209 -0.10232785 -0.15622434 -0.14935003 -0.18838526
-0.043061044 0.11916316 0.06481743 -0.19012386 0.12977241 -0.1519495 -0.06468145 -0.09015805
-0.053328637 -0.009619095 -0.21528569 -0.19715236 -0.0061433837 0.0035654514 -0.087196685 0.12035175
-0.16180247 -0.00341922 0.19960253 -0.048635025 0.19251823 0.07532706 -0.18233958 0.14706346
-0.014554993 -0.0981315 0.18281001 -0.14419349 0.043678965 -0.053994298 0.17493969 0.04150784
0.084730074 0.0697006 -0.08141073 -0.013722334 -0.17614174 0.13737144 0.16079605 0.106020235
-0.19511087 0.035194177 -0.14480928 -0.07415409 -0.116886966 0.11191738 -0.119147755 0.03674675
0.040068317 0.12732857 -0.115075245 -0.12854509 -0.10533919 0.12530851 -0.033771805 0.19841349
0.10408204 0.032844245 -0.04035227 -0.015732463 0.027796168 -0.021056913 0.040755477 0.02822048
-0.1617298 -0.06912132 0.18554601 -0.20595646 -0.021475598 0.21519734 0.08247154 0.0122076105
-0.15956557 0.08973119 -0.17507139 -0.07254498 -0.08693339 -0.059490465 0.018280836 0.18194602
0.029867176 0.163888 0.103518575 -0.09703632 0.06716753 -0.13715334 -0.07183991 0.06550743
0.11134479 0.1619767 -0.06509626 -0.003321662 0.12281438 -0.20281321 0.1458127 -0.17117862
0.01265458 -0.035288524 -0.051946625 0.031011896 0.17184445 -0.05017176 -0.117535725 -0.023193741

weight f4 [200]
00000000: 705f 753f aa38 7b3f 43aa 7d3f 2a24 793f
00000010: 1279 7c3f 9af1 823f d19d 803f 0fe3 7c3f
00000020: 4912 793f 3218 843f 5a37 863f 7ebc 783f
00000030: dd38 793f cd1c 813f 6efc 803f 1634 7a3f
00000040: d5f4 7b3f 8a53 823f 6195 823f 924d 7d3f
00000050: 3566 7a3f 5a75 853f dd85 7b3f 97da 7e3f
00000060: ac89 7f3f f1a2 803f 34fc 833f 7b9d 7d3f
00000070: 720b 823f f381 853f 6483 7e3f 19f1 7f3f
00000080: 87bb 7d3f 6de5 7a3f 92a0 813f 2aa6 803f
00000090: 4f83 783f 8920 823f 2d13 7b3f 8273 823f
000000a0: e02a 783f 8630 7c3f 2b60 823f 1af2 7d3f
000000b0: 4a2e 803f bca4 813f df43 7b3f dc6c 803f
000000c0: 9349 813f d695 7c3f 8067 7e3f a902 7e3f
000000d0: 92d2 7c3f 1422 813f 3ad1 813f 9e91 813f
000000e0: 9cb0 803f 37f9 783f d20a 813f d10b 813f
000000f0: c376 7e3f 06f7 7b3f cf43 813f 084a 753f
00000100: 83d3 813f 252f 813f 86d6 833f 5326 813f
00000110: 6c5c 7b3f 5bf8 7d3f cbf1 763f b8e2 783f
00000120: 08b2 7f3f 8666 843f 4afe 7e3f a138 7e3f
00000130: 2ddf 7f3f 4d2a 7f3f f132 803f c1d6 713f
00000140: 9e24 763f 34bd 7d3f bf22 7a3f 9c3a 7f3f
00000150: 6b0a 7c3f 653c 813f c40b 7d3f f48c 803f
00000160: 8a90 803f 6a22 803f ab48 813f 6437 7a3f
00000170: 4094 803f 5cbe 813f 3c42 7b3f b62b 783f
00000180: ea43 853f 4321 803f abe5 763f 6d34 783f
00000190: 7808 823f 0f37 853f 73bd 793f 3b9f 823f
000001a0: f38e 793f df69 7f3f 1af3 803f df5e 7f3f
000001b0: e526 7f3f a607 7d3f c44b 753f 5bf7 783f
000001c0: 8aec 813f e65b 803f c9d7 7b3f a8ef 833f
000001d0: 9e65 853f 1a84 823f 478e 813f 5273 803f
000001e0: 55c9 813f 1986 7b3f 9e68 843f 9fc6 7d3f
000001f0: ae82 873f d29d 793f ec7c 843f aa42 7c3f
00000200: a1b7 813f 5176 823f 7829 7d3f d66f 863f
00000210: ebee 7e3f 91c1 803f 2c00 883f d226 793f
00000220: 2a9b 813f c9b9 823f d671 7b3f 3049 7c3f
00000230: 8dcc 7f3f 218c 833f 61b3 843f 116d 7f3f
00000240: d84c 833f 1654 773f cd7d 7c3f 62d1 803f
00000250: afe8 7d3f 63a3 7f3f ba7d 803f 2263 813f
00000260: 7439 843f 42ad 7f3f 7139 7e3f 53e9 7d3f
00000270: 58ae 773f 4d2e 7a3f d17e 813f 0c27 823f
00000280: 7923 7d3f 8ec8 7d3f a30a 793f fe5a 763f
00000290: d0de 813f 8898 7e3f 47b8 833f cf9d 813f
000002a0: 2f6a 7d3f 9929 7c3f a159 853f 32f5 813f
000002b0: 67a1 803f 08b1 7e3f 0bd2 7b3f e10f 7e3f
000002c0: 1939 863f a4a7 7c3f be39 803f 850c 843f
000002d0: bce5 813f 0487 7c3f cfb0 7e3f d121 813f
000002e0: 846b 7b3f 170d 803f 454b 863f d3ee 7b3f
000002f0: 8423 7d3f 4570 823f 0ad7 723f f179 7e3f
00000300: 89de 783f 7f65 803f 026a 843f cfd9 873f
00000310: e0f5 803f 2a88 753f 5661 7e3f cd56 813f
0.9584875 0.9813334 0.99087924 0.97320807 0.9862224 1.0229981 1.0048162 0.98783964
0.97293526 1.0319884 1.0485642 0.97162616 0.9735239 1.0086914 1.0077035 0.97735727
0.9842046 1.0181744 1.0201837 0.9894649 0.97812206 1.0426438 0.98251134 0.9955229
0.99819446 1.0049726 1.0311341 0.9906842 1.0159743 1.0430282 0.99419236 0.9997726
0.9911427 0.98006326 1.0127127 1.0050709 0.9707536 1.0166179 0.98076135 1.01915
0.9694042 0.9851154 1.0185598 0.9919754 1.0014126 1.0128398 0.9815044 1.0033221
1.0100578 0.9866613 0.9937668 0.9922281 0.98758805 1.0088525 1.0141976 1.0122564
1.0053897 0.9725527 1.0081427 1.0081731 0.99399966 0.984238 1.0098819 0.9581609
1.0142673 1.0092512 1.0299842 1.0089821 0.981879 0.99207085 0.96462697 0.97220945
0.9988103 1.0343788 0.99606764 0.9930516 0.99949914 0.9967392 1.0015546 0.94468313
0.96149623 0.99116826 0.9770927 0.99698806 0.98453397 1.0096556 0.9884608 1.0043015
1.004411 1.0010502 1.0100302 0.9774077 1.0045242 1.0136218 0.9814794 0.969417
1.0411351 1.0010151 0.96444196 0.96954995 1.0158834 1.0407428 0.975547 1.0204843
0.9748375 0.9977092 1.0074189 0.99754137 0.99668723 0.98839796 0.95818734 0.97252434
1.0150311 1.0028045 0.98376137 1.0307512 1.0421636 1.0196564 1.0121545 1.0035193
1.0139567 0.9825149 1.0344427 0.99131197 1.0586755 0.9750644 1.0350623 0.9853922
1.0134164 1.0192357 0.988914 1.050288 0.9958331 1.0059072 1.0625052 0.9732486
1.0125477 1.0212947 0.98220575 0.98549175 0.99921495 1.0277139 1.0367242 0.997758
1.0257826 0.9661268 0.98629457 1.0063899 0.9918317 0.99858683 1.0038369 1.0108378
1.0330033 0.99873745 0.993064 0.9918415 0.967504 0.977269 1.0116826 1.0168166
0.9888225 0.9913415 0.97281855 0.96232593 1.0146122 0.99451494 1.0290612 1.0126284
0.9899015 0.98500973 1.0417978 1.0152953 1.0049256 0.9948888 0.98367375 0.9924298
1.0486175 0.986933 1.0017622 1.0316321 1.0148234 0.9864352 0.9948854 1.0088445
0.9821093 1.0003995 1.049172 0.9841129 0.9888232 1.0190512 0.94859374 0.9940482
0.9721456 1.0030974 1.0344851 1.0613345 1.0075035 0.95910895 0.9936727 1.0104614

bias f4 [200]
00000000: 8b33 e6bb 22d4 193d 4868 d3bc da09 ac3b
00000010: b5cc 823c 92b1 603d 4e15 de3c 73a0 f8bb
00000020: ea50 f83c 9284 b4bb ec52 4cbc 7724 37bb
00000030: a65f 9b3c 16ed 233d 5625 f2bc c822 05bd
00000040: fc9c a63c 9fa3 e4bc a7d1 d4bb 074d 083d
00000050: 1e1c 25bd cbe8 95bc 9c88 b43c 3413 503d
00000060: a37b 6c3b f53d 9cbb 78d7 233c 472b bb3c
00000070: 0758 20bd 8a80 143d a705 713d eb77 17bd
00000080: 10d0 683c 8332 b6bb 69b4 a73c 5814 723b
00000090: 4cf0 8d3c 56dd aa3b 74d0 be39 2799 99bc
000000a0: de72 803c 2dab ccbc 43dd 3e3c 87db 3fbb
000000b0: 7327 2b3c 6cb5 1c3b 477c 303d a331 f5bb
000000c0: 900f 673c cc25 1e3d a66c ab3c fb14 edbc
000000d0: c06c af3b c8fe da3c 5d99 b8ba 45e4 223d
000000e0: c5ae edbc 37b1 3c3c 172f 28bd baca 613c
000000f0: 7d24 18bd a900 e23a 0994 5bbd 77b2 8a3b
00000100: a648 32bc 6500 893c 9e40 7c3c 466b e23c
00000110: e464 b8ba d4e9 313a ddc3 bebc 43d6 b6bc
00000120: b2fe 173d 8cfe 063c 96bd 553c d21d 09ba
00000130: 53b9 e63c b5c7 a8bb e4b6 693c e58c 2abb
00000140: 4666 1b3d 3cc5 c73b ec9a 373d 5a94 bdbc
00000150: 2c01 64bd 1e08 20bd 840d c0bc f709 87bc
00000160: 8301 e1bb 722b 953c d60c 3c3d 544b 093c
00000170: 0f26 93bc 6f67 1c3c bd2c 8bbc 2f43 f13c
00000180: 00cf 6e3c 5596 053d ebd9 253d 6a82 fcbc
00000190: 5865 15bd a6a1 623c 5e31 db3b b18f 08bd
000001a0: e0fb 43b8 f263 223d d883 b2bc f013 e43c
000001b0: ba16 583c 12dc 0fbd 686e c9bc 5eca d63c
000001c0: 5c36 0dbc c275 683c e058 223c b67b 873c
000001d0: ece7 efbc ed07 a53b 51c8 40bc 2536 e5bc
000001e0: 75b1 5dbd 8cfc 6b3d b125 613c 719b aa3c
000001f0: 9dfb 12bd 657b f43c fd69 c7bc 0fca 31bd
00000200: 985a 1bbd 6e0e d0ba 5913 01bd 958a b83c
00000210: f2ad fb3c 14f7 5fbc f18e e6bc 2a2c 8b3c
00000220: f79b dfba b2ba ebbc b246 4cbd 3a5a 4f3c
00000230: eded d1bb 39ec b23c 115e 54bd 42d4 f83c
00000240: 803f dc3c b104 3b3c 42a8 ba3b b492 723b
00000250: 2f9d cc3b d233 843c 922b 5c3b beb2 1a3d
00000260: 5f01 8e3c c814 3ebd 7d15 8abc e015 d3bc
00000270: 551c 563c 7a1a 5b3d 564f 64bb e806 5abc
00000280: a9ac b7bb d661 893c c7cd d93c e9c5 cb3b
00000290: 7b02 213d 80d9 143d 4fea b03c b5a1 e7bb
000002a0: 1d2b c23c d7a1 943b 3572 0c3c 8dfd dbbc
000002b0: 09f2 43bc bc22 6cbd 28e5 47bc 589f aabc
000002c0: 7b16 bebc 548e 7d3c 0939 be3c 87a0 533c
000002d0: ae9e feba 7c79 a1bc d4a7 30bd c290 663c
000002e0: 2090 0b3b a35c 3cbd 22e6 0fbc d453 3dba
000002f0: e454 8bbc f0d5 87bc 4e14 8e3c ce30 22bd
00000300: 6e00 033c 92c6 033d 7c0b 1f3b 8edd d63b
00000310: 5a47 893b 288b 0fbc 7230 f0bc f038 8fba
-0.0070251874 0.03755582 -0.025806561 0.005250198 0.015966753 0.054856844 0.027109768 -0.0075874864
0.03031202 -0.0055089677 -0.012470942 -0.0027945319 0.018966507 0.040021025 -0.029558819 -0.032503873
0.020338528 -0.027910052 -0.006494719 0.033276584 -0.040310018 -0.01829948 0.022037797 0.050799564
0.0036084435 -0.004768128 0.010000102 0.022847785 -0.03914645 0.036255397 0.05884328 -0.036979597
0.014209762 -0.0055602207 0.020471768 0.0036938395 0.017326497 0.0052143736 0.00036394934 -0.018749787
0.015679773 -0.024983967 0.011649433 -0.0029275136 0.010446417 0.0023911847 0.04308727 -0.007482724
0.0141028315 0.038610265 0.020925831 -0.028940668 0.00535354 0.026732817 -0.0014083792 0.039768476
-0.029014 0.011516861 -0.041060533 0.013781244 -0.037144173 0.0017242628 -0.053607974 0.0042327004
-0.010881579 0.016723821 0.015396265 0.027639043 -0.0014068154 0.0006786857 -0.023286754 -0.022318965
0.03710813 0.0082394 0.013045689 -0.0005230579 0.028164541 -0.00515076 0.014264796 -0.002602392
0.037939332 0.00609651 0.04482548 -0.023142029 -0.05566518 -0.03907024 -0.023443945 -0.016484244
-0.0068666353 0.018209193 0.04591068 0.008379776 -0.017962484 0.009546145 -0.016989106 0.029450981
0.01457572 0.03261407 0.040491026 -0.030823905 -0.036473602 0.013832485 0.0066892346 -0.03334016
-4.67262e-05 0.039646097 -0.021791384 0.027841538 0.013189012 -0.035121985 -0.024588779 0.026219543
-0.008618917 0.014188232 0.009908885 0.016538482 -0.029285394 0.005036345 -0.011766509 -0.02797992
-0.054124314 0.057613894 0.0137418965 0.020826073 -0.03588449 0.029843995 -0.024342531 -0.04340559
-0.037928194 -0.0015873441 -0.031512592 0.022527019 0.030722592 -0.013669748 -0.028144332 0.016988833
-0.0017060031 -0.028775547 -0.049872108 0.012655789 -0.006406537 0.021841155 -0.05184752 0.03037465
0.026885748 0.011414693 0.0056963274 0.0037013711 0.0062443237 0.016137991 0.0033595306 0.037768118
0.017334638 -0.046406537 -0.01685595 -0.025767267 0.013068278 0.053492047 -0.0034837327 -0.013307311
-0.0056052995 0.016770285 0.02658738 0.006218661 0.039309006 0.036340237 0.021596102 -0.0070688375
0.023702199 0.0045358944 0.008572151 -0.0268543 -0.011959561 -0.057650313 -0.012200631 -0.020827934
-0.023204079 0.015475828 0.023220556 0.012916691 -0.0019425952 -0.019711249 -0.043128803 0.014072599
0.0021295622 -0.045986783 -0.008782895 -0.0007222269 -0.017008252 -0.016581506 0.017343666 -0.039597325
0.007995708 0.032171793 0.002426832 0.006557173 0.004189414 -0.008761205 -0.029319976 -0.0010927003

running_mean f4 [200]
00000000: b05a 423e 0305 ab3e b525 333e f29a 813e
00000010: 6f9f 723e 289c 253e 8b70 583e 8942 523e
00000020: 6ad4 5c3e aad3 913e 1b37 273e 1dfe 7e3e
00000030: 62b2 353e 6fd5 303e 4326 2f3e 328a 833e
00000040: 3f60 6c3e 489b 843e 000f 873e d95d a83e
00000050: 1522 763e 965f 053e fbc3 713e 7acd 653e
00000060: 97c8 763e efd8 623e 8b9c 603e d49a 7b3e
00000070: d766 923e 22d6 423e 3632 763e fe5e 3e3e
00000080: 288f 863e 0d33 483e a13a 483e c0a9 ee3d
00000090: 63e4 3a3e a530 693e bb5b 423e 92a6 523e
000000a0: 6dbb 963e 4157 203e 69a1 783e 2ecf 3f3e
000000b0: ad83 a53e 46a6 423e c3f5 af3e c6e5 4b3e
000000c0: 3912 4d3e e3d4 473e 456a 683e d53e 473e
000000d0: c20f 993e 4c60 463e 7a35 773e 6dfb 593e
000000e0: c9bd 9c3e a3e0 473e 6053 383e 20ed 943e
000000f0: 3728 873e 2afd 8d3e 23f2 8b3e 008f 893e
00000100: c81f 713e 659d 9d3e c66f e63d 576c 373e
00000110: 7822 443e a5b3 413e 8f6e 883e 3b45 733e
00000120: 79cd 483e c14b 573e b715 883e edef 543e
00000130: 959d 593e 8058 8d3e 3456 983e 90bd 213e
00000140: e476 4e3e b0bb 803e deef 6c3e 8d9c ac3e
00000150: d724 663e 0e00 753e 6646 b53e b2aa 333e
00000160: 0696 6f3e 8bfd 523e 37d6 243e 8345 773e
00000170: bbeb 5f3e 7813 633e 1ed8 413e 4eb8 3f3e
00000180: 1521 7d3e 9c8b 493e a292 583e 67fe 853e
00000190: a62a 8e3e b098 723e 4e4a 4b3e 4732 6d3e
000001a0: de7a 413e 6a4f 953e 94f7 2d3e cd9b 733e
000001b0: 5db5 473e adb6 843e ab98 af3e c3d5 3d3e
000001c0: 555b 593e a99b 9b3e 08e5 463e fe6a 653e
000001d0: a497 163e 271b 3d3e 20f9 263e 237c 3a3e
000001e0: ffc4 853e 4b19 903e 12c6 4e3e b348 363e
000001f0: 17c9 173e 8a3a 423e 6779 153e 7375 8e3e
00000200: 26de 853e e070 4a3e 2c2c 833e f54d 393e
00000210: b9f0 953e ca8a 5b3e 8c98 273e 608d 8f3e
00000220: ebf6 7e3e 08b9 9f3e 4e7a 943e 5ca1 403e
00000230: 9a67 613e ef54 1f3e 086a 233e d21a 473e
00000240: e258 9d3e 1ba1 853e 89fe 3f3e 56b6 9a3e
00000250: 2dc0 9b3e 9583 583e a35e 5b3e e233 513e
00000260: 2266 383e 7057 f13d 6bb5 883e cfc5 2a3e
00000270: a228 5b3e 4e4a 9e3e 87dc 5a3e 3f49 713e
00000280: 2004 4a3e 5984 583e 4228 1d3e d75c 293e
00000290: 927f 813e 8cbd 423e 753b aa3e 9c48 513e
000002a0: 59a8 3b3e 02bc 553e af75 683e 10bd 613e
000002b0: 7d2f 893e ebc8 2d3e 475f 7d3e 925b 293e
000002c0: dcec 193e 38b0 793e 0512 4e3e 6148 7b3e
000002d0: 8eb2 703e ac93 6e3e 82d2 863e 8ed1 993e
000002e0: f2d0 893e 06c8 6a3e 9dff 303e 8a3d 8f3e
000002f0: 3763 a53e cc1c 453e b8d0 9d3e ec32 1b3e
00000300: 0088 843e b65e 393e 1db8 4d3e 47bb 5f3e
00000310: a750 9c3e 049f 6a3e 25d6 1d3e 6350 303e
0.18979907 0.3340226 0.17494853 0.25313526 0.23693632 0.1617285 0.21136682 0.20533194
0.21565405 0.284818 0.16329615 0.24901624 0.17743829 0.17268918 0.1710444 0.25691372
0.2308359 0.2589972 0.26378632 0.328841 0.24036439 0.13024744 0.23609917 0.22441664
0.24099956 0.22153066 0.21934716 0.24570781 0.28594086 0.19026998 0.24042591 0.18590924
0.26281095 0.19550724 0.19553615 0.11653471 0.18251185 0.22772463 0.18980305 0.20571354
0.2943987 0.15658285 0.24280323 0.18731377 0.32327023 0.19008741 0.3436719 0.1991187
0.20026483 0.19514804 0.22696789 0.19457562 0.29894835 0.19372672 0.24141493 0.21287318
0.30613545 0.19519286 0.18000555 0.29087162 0.2639787 0.2773221 0.27333173 0.26866913
0.2354728 0.30784145 0.11251788 0.17912422 0.19153774 0.18916185 0.2664685 0.23756878
0.19609632 0.21024992 0.26579067 0.2079465 0.21251519 0.27606583 0.29753268 0.15794969
0.2016254 0.25143194 0.23138377 0.3371319 0.22474991 0.23925802 0.35405272 0.17545584
0.23397073 0.20604531 0.16097341 0.2414761 0.21867268 0.22175395 0.18930098 0.1872265
0.24719651 0.19682163 0.21149686 0.26170656 0.27766913 0.23691058 0.19852564 0.2316371
0.18894526 0.2916215 0.16988975 0.23789902 0.19502778 0.2592062 0.34296164 0.18538575
0.21226247 0.30392197 0.19423306 0.22404096 0.14706284 0.18467389 0.16305971 0.18211417
0.2612686 0.28144297 0.20192745 0.1780117 0.14822803 0.18967643 0.14597093 0.27823982
0.26146048 0.19769621 0.25619638 0.18096144 0.2928522 0.21439663 0.16366786 0.28037548
0.24898879 0.31195855 0.2899956 0.18811554 0.22012177 0.15559743 0.15958416 0.19443825
0.30731875 0.26099476 0.18749441 0.30217236 0.30420056 0.21143945 0.2142282 0.20429948
0.1800771 0.117842555 0.2670091 0.1667702 0.21402219 0.30916065 0.21373187 0.23563097
0.19728136 0.21144237 0.15347388 0.16539322 0.2529264 0.19017619 0.33248487 0.20437855
0.18325938 0.208725 0.22701143 0.22044778 0.26794043 0.16971175 0.24743377 0.16538838
0.15031761 0.24383628 0.20124061 0.24539329 0.23505613 0.2329852 0.2633248 0.3004269
0.26917225 0.22927865 0.17285009 0.27976638 0.32302257 0.19249266 0.30823302 0.15156144
0.2588501 0.18102536 0.20089765 0.21848784 0.30530283 0.22912222 0.15413721 0.17218165

running_var f4 [200]
00000000: 7643 733d 193b 4e3e 85fe 923d fbdf 163e
00000010: c7be fb3d 1dca 623d 0ee6 b93d 9071 ad3d
00000020: 6799 293e cc29 333e 9681 8b3d be64 163e
00000030: 5b68 a33d a1f1 7d3d ae4a c13d 8ad9 213e
00000040: a8d9 263e 0cdd 343e a132 703e 5096 aa3e
00000050: 9727 cb3d aef0 273d e3d4 4c3e a507 263e
00000060: 4ebe e13d 4382 233e 7664 e13d 72ab 223e
00000070: 8195 1f3e 581b c03d f420 213e 25d7 b53d
00000080: f8b6 f63d 0bb2 b23d 650c 993d 43fe 053d
00000090: 41c9 a03d f91f 0a3e 2d3a 993d f900 ce3d
000000a0: c671 433e 9c90 953d 841f d23d 0667 9b3d
000000b0: 5d43 603e 3712 c83d 72dd 6a3e 4a9a a53d
000000c0: a7f2 f63d 7b64 013e 0300 b43d aff6 ee3d
000000d0: 0f3b 3c3e da68 b63d 33cd f93d 726b 0a3e
000000e0: d901 443e a3ef cd3d 6c19 5b3d 7cfc 683e
000000f0: 630f 4f3e c276 543e d9ce 013e 74d6 3b3e
00000100: 9b58 2b3e 1ace 203e d14a 143d ea5b 1c3e
00000110: 59d2 8d3d d803 f73d 4284 343e c86d 0c3e
00000120: 8be1 de3d 14a4 223e c31a 153e 0266 293e
00000130: bbb5 eb3d 0ec3 463e f6c8 283e ffda 663d
00000140: 0226 b73d cea4 133e d981 033e ba4c 1b3e
00000150: b83d 113e 1792 093e 87dc 4d3e 9242 b53d
00000160: 32a6 113e ad33 003e f407 a33d a433 de3d
00000170: 6c68 083e 08bf 063e 3a23 7c3d bf58 d53d
00000180: 2bcf 013e 8766 043e 420b b63d b5e7 133e
00000190: b0b5 233e ecdf 363e 4ac2 b03d 79ac e23d
000001a0: ebbf 963d 8949 783e 9899 a13d 3f29 063e
000001b0: 7577 ba3d 5213 cb3d f05c 663e 68aa 9f3d
000001c0: d5e8 d73d b4b9 493e f37a d23d b37d ed3d
000001d0: d0ab 243d 09da d63d 11fa 923d 424c 883d
000001e0: a4b3 e63d f5f5 9b3e 2c5e cb3d 2f21 ab3d
000001f0: 47ac 743d 51a8 b83d 3086 473d c827 4b3e
00000200: a110 1c3e 03a1 bc3d 96c4 1d3e 23d0 7c3d
00000210: e5d5 6a3e 666e e53d 6d74 8a3d 32f5 f33d
00000220: e12a 113e 4f04 733e 1e25 813e b92c b43d
00000230: 8e7b ab3d 980c 793d 9bfd 833d 5d75 dc3d
00000240: 42b1 763e 6c3f 473e 82c9 fd3d 6b88 393e
00000250: 880c 503e c12e ed3d 5818 c83d 3661 af3d
00000260: 61e1 d73d 78cb 363d 20d8 833e 2ad4 773d
00000270: 19bd 153e 13bd 463e 84e6 b83d bcc6 d23d
00000280: f5cc 983d 9b45 df3d ddcf 913d b651 8b3d
00000290: d78c f73d dc44 c73d 515f b03e 9f1b 893d
000002a0: 8694 913d cc64 113e 87a7 033e 9fdc dd3d
000002b0: 94d5 123e 43cf 723d c4c8 e23d 2706 833d
000002c0: 846c 6e3d aa6a db3d 909e d13d 8477 e33d
000002d0: 18c4 093e 62ca 5a3e 8107 413e 5f90 8a3e
000002e0: ccdc 703e cf71 c53d 9062 c13d e21c 483e
000002f0: 7f70 5f3e 32d1 b13d ac31 813e 3b72 2b3d
00000300: e265 2a3e 1700 d73d 7d64 d23d 0ab3 d93d
00000310: b6d6 713e 3bfb c13d 0781 483d 133b 8d3d
0.059390508 0.20139731 0.07177452 0.1473388 0.12292247 0.05536853 0.090770826 0.08468926
0.16562425 0.17496413 0.06811826 0.14686868 0.079788886 0.061998013 0.09438072 0.15805641
0.16293967 0.17662448 0.23456813 0.33317804 0.099196605 0.041001014 0.20003085 0.16213854
0.11022626 0.1596766 0.110054895 0.15885714 0.15584375 0.093802154 0.15735227 0.08878926
0.12046617 0.08725365 0.07473067 0.032713186 0.07850886 0.13488759 0.07481799 0.10058779
0.1908637 0.07302973 0.102599174 0.075880095 0.21900697 0.09769099 0.22936037 0.08086069
0.12058001 0.12635987 0.08789065 0.11668145 0.18381904 0.089067176 0.12197342 0.1351755
0.1914133 0.10055473 0.05349104 0.22752565 0.20220713 0.20748428 0.12676562 0.18343526
0.16733019 0.15703622 0.036204163 0.15269437 0.06924886 0.1206128 0.17628577 0.13713753
0.10882863 0.15882903 0.1456099 0.16542819 0.11509272 0.19410345 0.1648291 0.056361195
0.08942796 0.14418337 0.12842502 0.15165988 0.141837 0.13434635 0.20103656 0.08850588
0.14223555 0.12519713 0.07960501 0.108496934 0.13321084 0.1315881 0.061557032 0.104173176
0.12676685 0.12929736 0.08888866 0.14443858 0.15987277 0.17858857 0.08630808 0.11068053
0.07360824 0.24246801 0.07890624 0.13101672 0.09104816 0.099157944 0.2249639 0.07796174
0.10542456 0.19699746 0.10277357 0.11596241 0.040202916 0.10490806 0.07176603 0.0665517
0.112647325 0.30461088 0.09930071 0.08355939 0.05973461 0.09016479 0.048711956 0.19839394
0.15240718 0.09210398 0.15407023 0.061721932 0.22933157 0.112026975 0.06760488 0.11912002
0.14176513 0.23732112 0.2522363 0.08797593 0.083731756 0.060803026 0.06444856 0.10764573
0.24091056 0.19457787 0.1239195 0.18118446 0.2031728 0.11581183 0.09770268 0.085634634
0.105410345 0.044627637 0.25750828 0.06050507 0.14622916 0.19408064 0.09028342 0.10291812
0.074609675 0.10901948 0.07119725 0.068026945 0.1208741 0.09729931 0.3444772 0.066947214
0.07108407 0.14198607 0.12856875 0.10833096 0.14339286 0.05927969 0.11073449 0.06397658
0.058208957 0.10713704 0.102353215 0.1110678 0.1345371 0.21366265 0.18850519 0.2706327
0.23521727 0.09640848 0.094426274 0.19542268 0.21820258 0.08682479 0.2523321 0.041856986
0.16640428 0.10498064 0.10273073 0.10629852 0.23617062 0.094717465 0.048951175 0.06896033

weight f4 [100, 200]
00000000: af6d 663d eb08 05bc 8e1b 593d 3979 58bc
00000010: a537 c7bd 8753 9bbc 24aa 6bbc b1df 1cbd
00000020: cbc9 f33c 19cc 85bd 3340 8dbc ebae eb3b
00000030: 4a97 e43c ea20 77bc 25b2 a33d 6b4f 223d
00000040: 3ba9 a63c a98e 263d 9f9b 083d 8395 81bd
00000050: e6da 18bc c1e3 a03d 132e d13c 2f95 32bd
00000060: 07c4 c6bc 6cf3 c8ba 3570 923c e5ba 5d3b
00000070: 14b3 2bbd 7435 77bd 053f 31bc 6a09 3e3d
00000080: 12ac 35bc c357 91bd ed44 72bb ebd7 cd3d
00000090: cbc6 1ebd d02f 94bc 12bd d43d a002 a63d
000000a0: e058 b7bd f939 cabd 62ed 31bb 473e 673d
000000b0: 0cc2 46bd 5b41 5d3d 503d 0a3d b612 0abd
000000c0: 17d0 b4bb 11df 2abd 2739 ec3c 27d6 b63c
000000d0: 533b 5f3d eb0b 043d 702d 483a cd1e 34bd
000000e0: 58ba afba 44fe 643a 0834 ea3c 1884 94bd
000000f0: 2168 debc f26f 6e3c b7d8 d03d cb1e 1ebd
00000100: 219f f2bd 1013 d5bc 836a a5bd 17f2 863b
00000110: e28f 623d 47b7 233c 5716 073d b15a 6e3d
00000120: 867e 9b3d 51f9 053d 6e0e 953c 0070 a8bb
00000130: 204d 093b 51ea c0bc 3c00 08bd 98fb 583c
00000140: 0869 babc 19cb 71bd 37fe c2bd f719 1dbd
00000150: 813a 0b3d 95e5 973d 2f86 afbc 3ba2 80bc
00000160: 97c5 e6bc 079e 263d a60f abbd 2e83 24bd
00000170: cc00 5abd 7efb 603d 7809 7cbc 4171 f63c
00000180: d35c 47bb 9245 62bd 85fc e5bc 7164 0ebd
00000190: 700b 5f3d 3f06 90bc de65 ef3c 61c6 903b
000001a0: 7338 2bbd 59de acbd 5059 1bbd 26c9 7a3c
000001b0: 216b b1bc 0566 5f3c fef9 85bc 22b4 80bd
000001c0: 1765 36bc 2301 91bd 56cf 92bd e14b aebd
000001d0: e802 42bd eeee a6bd c731 363d 6110 7e3d
000001e0: 23d2 6a3d 477f b5bd 74bb 863d 94c4 043d
000001f0: 44f7 8f3d e3a2 67bd 5916 a03d 2397 ddbc
00000200: 4785 fb3c 2e23 203d 64f7 243d 130a a0bd
00000210: 7081 69bd 0bf0 27bc b62f a83d 643b 033b
00000220: ba17 423c fafa a83c 960e 393c 8502 dbbc
00000230: d815 96bd a4e5 3fbd 8129 d43d f2a9 663d
00000240: bf60 1bbd 8f54 8a3d 2c98 053d 6ad6 91bd
00000250: 7c10 a33a 5444 88bd 8c61 333c 0302 67bd
00000260: 41b5 65bc ff77 713d 4885 46bd 7be3 63bc
00000270: e81d 0fbd d567 97bd 54a8 573d 13f8 26bd
00000280: 9649 21bd fb2a 893d ab08 17bd 5f96 1dbd
00000290: 0d4c 0d3d acac 28bd c5a8 96bd fea3 78bc
000002a0: 7331 c13a d32c 36bc 9bf5 233d bc5d 0cbc
000002b0: 3bb7 ab3d 0fe5 7fbd b6d4 5a3d 69aa b3bc
000002c0: 1eb9 503b fb8c 9f3d 1e3c 93bd 929c da3b
000002d0: 7c5b 973d 6910 313d 4fa3 28bd bfa0 00bd
000002e0: d323 8e3d 0927 0ebd 7f58 153d cd01 c1bc
000002f0: 8394 693c 25dc a6bd 46d3 0bbc 7d90 43bc
00000300: f63c b23d 3783 0e3b 2bc3 7bbd 2334 43bd
00000310: 2044 d0bd 9b16 20bd 60af 70bc 83d5 63bd
00000320: 94fe 843d c76f 68bd f9db c63b a988 b23b
00000330: 17e6 5dbd 7716 e4bc 6d5a 4dbd 55a1 11bd
00000340: 694a debb effe 8b3d 540f 513c ebb4 823d
00000350: 74bb 64bc c345 cebb f359 b13d 1cc5 2fbd
00000360: 5ac0 3abd 6c42 0d3c 6230 023d 374e 69bd
00000370: 13c3 b33c d648 0cbd de20 0bbd a150 8bbc
00000380: 1712 efbc ca02 05be 0632 353b 33b5 edbc
00000390: c3b2 803d 99e8 acbc 1c19 88bd 8978 91bc
000003a0: 34de 38bd 5d40 5c3c 3f6b cbbc 260b 62bb
000003b0: 88d8 c0bb 37ff 17bd 1a5f 33bc 2e1b 8c3d
000003c0: ae89 51bd 63e4 8bbd 1baa 3e3d 38a8 063c
000003d0: 4d78 673d d544 14bc a983 b43c 3afa 2cbc
000003e0: ccf4 56bd 183b 2fbd 4b91 81bd d647 ce3c
000003f0: b8fe 713c be07 c6bd b83b a23d 06f0 073d
0.056256946 -0.008119802 0.053004794 -0.0132124955 -0.0972741 -0.018960727 -0.014383826 -0.038299266
0.029759308 -0.06533069 -0.017242527 0.0071924827 0.027904171 -0.015083531 0.07992963 0.03962652
0.020344367 0.040663395 0.033351537 -0.06327345 -0.009329533 0.078559406 0.025534665 -0.043599304
-0.024263395 -0.0015331334 0.01787577 0.0033833322 -0.04191883 -0.06035371 -0.010818248 0.046395697
-0.011088388 -0.07096817 -0.0036967352 0.10050949 -0.038763802 -0.018089205 0.10387625 0.081059694
-0.089524984 -0.09874339 -0.0027149548 0.056455877 -0.0485249 0.054017406 0.03374988 -0.03370925
-0.0055179703 -0.04171664 0.028835846 0.022318913 0.054499935 0.03223793 0.0007636165 -0.043974686
-0.0013406975 0.00087353983 0.028589264 -0.072517574 -0.027149262 0.014553057 0.10197585 -0.038603585
-0.11846758 -0.026010066 -0.08076956 0.004118215 0.055313 0.009992427 0.03298029 0.05819196
0.07592492 0.03270847 0.018195357 -0.0051403046 0.002095051 -0.02354923 -0.03320335 0.013243578
-0.02275516 -0.05903158 -0.09521144 -0.03835484 0.03399134 0.07416836 -0.021426288 -0.015702358
-0.02817039 0.04067805 -0.08352594 -0.040164165 -0.053223416 0.05492734 -0.015383117 0.0300833
-0.0030420318 -0.05524213 -0.028074512 -0.034763757 0.054454267 -0.017581103 0.029223379 0.00441818
-0.04180188 -0.08440847 -0.037926972 0.015306747 -0.021657528 0.013635163 -0.016354557 -0.062843576
-0.0111325 -0.07080295 -0.071684524 -0.085105665 -0.047366053 -0.08151041 0.044481065 0.06202734
0.05732931 -0.08862167 0.065787226 0.032414034 0.07029584 -0.056551825 0.078167625 -0.027049607
0.0307032 0.03909605 0.040274993 -0.078144215 -0.057008207 -0.010250102 0.08212225 0.0020024413
0.011846477 0.020627487 0.011294981 -0.0267346 -0.07328385 -0.04684986 0.10359479 0.056314416
-0.03793406 0.067544095 0.032615826 -0.07120974 0.0012440826 -0.066536576 0.01094855 -0.056398403
-0.014020265 0.058952328 -0.04846695 -0.013909216 -0.03494063 -0.07392851 0.052650765 -0.040763926
-0.039376818 0.06697651 -0.0368735 -0.038473483 0.034496356 -0.041180298 -0.07356409 -0.0151758175
0.0014739468 -0.011119085 0.04002915 -0.00856727 0.08384558 -0.062474307 0.053425513 -0.021931844
0.003184862 0.07790562 -0.07189201 0.0066714967 0.07390496 0.04322854 -0.04117137 -0.0314033
0.06940427 -0.034705196 0.03646135 -0.023560429 0.014256599 -0.08147458 -0.008534258 -0.011936304
0.087030336 0.002174569 -0.061465424 -0.047657143 -0.10169244 -0.03908406 -0.01469025 -0.055623543
0.064938694 -0.056747224 0.0060687033 0.00544842 -0.05417451 -0.027842743 -0.050135065 -0.03555425
-0.0067837727 0.06835734 0.012760002 0.063821636 -0.013960708 -0.0062949373 0.086597346 -0.042912588
-0.045593597 0.008621793 0.031784423 -0.056959357 0.021943605 -0.03424915 -0.03396689 -0.01700622
-0.02918343 -0.12989345 0.0027648224 -0.029017067 0.06284096 -0.021107005 -0.06645414 -0.017757671
-0.045133784 0.01344308 -0.024831412 -0.0034491508 -0.0058851875 -0.037108626 -0.010947967 0.068411216
-0.051156692 -0.06830671 0.046548944 0.008218817 0.056511212 -0.009049614 0.022035437 -0.010557706
-0.05247955 -0.042780966 -0.063265406 0.025180738 0.014770202 -0.096694455 0.07921547 0.03318789

weight f4 [100]
00000000: 3a08 7e3f febb 7d3f c556 743f f25c 703f
00000010: 8042 753f 2083 713f 9d06 733f 6373 713f
00000020: 6ae3 6f3f eadf 6e3f 447e 783f 8a2d 793f
00000030: 887b 5d3f b0a7 763f 525e 7a3f bebc 7a3f
00000040: 194a 7a3f 9dbc 703f 2e01 723f 2e6a 6f3f
00000050: 38a0 733f ea81 733f 4274 763f ef28 733f
00000060: 2df1 763f 4dcd 6f3f 5533 733f 592c 783f
00000070: d4f9 743f f05e 733f fb3e 763f 3334 7b3f
00000080: 04e2 6c3f e0a1 733f da23 713f 9e7c 793f
00000090: abdf 793f a7bf 7a3f 6e62 7a3f a78a 7a3f
000000a0: 3859 743f 5ce5 773f 9d9f 673f 4042 723f
000000b0: c9ff 783f cbda 6e3f c27c 723f fde2 6e3f
000000c0: 3e10 7d3f 66b4 763f 6a3e 7a3f 52ee 783f
000000d0: 234c 793f 2072 743f 37a4 7b3f 31a3 743f
000000e0: acca 773f 1a95 713f 20af 773f 363d 793f
000000f0: bca7 763f c099 723f 3056 743f 6943 763f
00000100: 975b 6f3f f3c2 783f 4d1b 763f 2db3 7a3f
00000110: e170 783f 1f40 733f aae3 763f 4186 643f
00000120: 5134 693f c86f 753f a07a 793f 508b 6b3f
00000130: befb 763f 1be6 783f 151b 743f 4a5c 753f
00000140: 3ea1 763f 6e33 763f b34d 783f 82ee 713f
00000150: d8e5 783f 0f69 703f 135c 763f f28d 753f
00000160: e558 7a3f f1e4 753f 0c0d 783f c04b 7b3f
00000170: 9d7a 7a3f c7ad 7a3f 8b07 773f 15c1 783f
00000180: 9cb6 773f 27ad 703f fff1 783f be4c 723f
0.992313 0.9911498 0.954449 0.93891823 0.95804596 0.94340706 0.94931966 0.9431669
0.9370638 0.93310416 0.97067666 0.9733511 0.8651662 0.9634962 0.9780017 0.9794425
0.97769314 0.940378 0.9453305 0.9352139 0.9516635 0.9512011 0.96271145 0.94984335
0.96461755 0.9367264 0.950002 0.9694267 0.9569371 0.9506674 0.9618985 0.98126525
0.9253237 0.95168877 0.9419533 0.97455776 0.97606915 0.9794869 0.9780644 0.97867817
0.95448637 0.9683435 0.90477926 0.9463234 0.972653 0.933026 0.94721615 0.93315107
0.9885291 0.96369016 0.97751486 0.9723865 0.973818 0.9548664 0.98297447 0.9556151
0.9679363 0.94368136 0.96751595 0.97359025 0.9634969 0.94765854 0.9544401 0.9619661
0.9349913 0.9717247 0.9613541 0.9792965 0.9704724 0.95019716 0.9644114 0.89267355
0.91095454 0.9587369 0.97452736 0.9200945 0.9647788 0.97226113 0.95353824 0.95843947
0.96339786 0.96172225 0.9699356 0.9450456 0.97225714 0.93910307 0.96234244 0.95919716
0.9779189 0.9605246 0.9689491 0.9816246 0.97843343 0.97921413 0.96495885 0.9716962
0.96763015 0.9401421 0.97244257 0.9464835

bias f4 [100]
00000000: 64ea a13a dab4 44bc 13bc 1dbb 9977 54bc
00000010: 66fd 9e3b bc22 e4bb 89b2 1e3c e9f7 5d3c
00000020: f7cf f03c 564d d2bc 442f 0dbb 9808 55bc
00000030: b2f3 133a 34bf 7abd 703c e33c 9ef8 ac3a
00000040: 08dd fc3a 8086 513b 148b 003c 7532 3bbd
00000050: b29a adbc 3c2d 293c ce6a 5e3c a38d 2fbc
00000060: 87ba 803c 1088 f8ba f78c d13c 5e24 8c3b
00000070: 783b 823c c083 75bc 761b f33b a652 ed3c
00000080: 84e9 34bd 3a82 2dbd fc2c 773b bc14 2fba
00000090: 80a9 9b3c 3028 09bb e8f1 10ba e0da ca3a
000000a0: f217 bfbb eb77 1cbc 0282 653c f0c2 69bc
000000b0: 48d8 9c3c c30b 1a3d 1b0c 79bc 8825 83bd
000000c0: f2f5 f7ba 1f8a 343c 85d3 32bb 7878 443c
000000d0: 4f7f 893c a160 84bd 8e9b 863b 98a3 ab3c
000000e0: 215c 523c 5ac0 233b 0c93 77bc cfef 46bc
000000f0: 84f3 a63c 0d11 06bb 4ecd bb3c 4ede 11bc
00000100: e1e9 d93d 475f 3abc 927e 7e3c e498 2fbc
00000110: 6dd4 46bd 6492 b9bb 366d babb c1aa b5bd
00000120: 94d8 933d 322d 513d 7a37 01bc 07ab 44bd
00000130: 0a7c a13b 639f 263c 9cec 0f3c b8cf a63c
00000140: b856 29bc 1771 92bb 96ba 18bc 74a6 963c
00000150: 87df a3bb 1a7d 023b ccb6 f23b 7f55 4b3c
00000160: 603b f939 4818 bf3c b14a 46bc 352c d73c
00000170: b78b 75bc d72c 87bb 4b63 3ebc 5ad0 51bc
00000180: a036 4d3b 48e7 c13c cfdf 49bb 8212 07bc
0.0012353179 -0.012006009 -0.00240684 -0.012967967 0.004851985 -0.0069621485 0.009686121 0.013547876
0.02939604 -0.025671642 -0.0021543065 -0.013002537 0.00056439184 -0.0612175 0.02773878 0.0013196652
0.0019291947 0.0031971037 0.007845659 -0.045702416 -0.021191929 0.010325726 0.013575269 -0.010714921
0.015713943 -0.0018961448 0.025579913 0.0042767962 0.015897498 -0.014985025 0.007419045 0.028970074
-0.04416801 -0.04236052 0.0037716022 -0.000667881 0.019001722 -0.0020928495 -0.0005529211 0.0015476607
-0.005831712 -0.009550075 0.014008047 -0.014267668 0.0191461 0.037608873 -0.01520064 -0.06403643
-0.0018917902 0.011019259 -0.002728672 0.011991613 0.016784338 -0.06463743 0.004107899 0.020952031
0.012839348 0.0024986477 -0.015110742 -0.012142136 0.02037979 -0.002045694 0.022925045 -0.008903099
0.10640312 -0.011375255 0.015533106 -0.010717604 -0.04854243 -0.005663203 -0.0056892885 -0.08870459
0.072190434 0.051068492 -0.007886762 -0.048014667 0.0049281167 0.010169837 0.008784439 0.02036272
-0.010335617 -0.0044690478 -0.009321829 0.018389918 -0.005001012 0.0019910992 0.007407045 0.012410521
0.0004753722 0.023327008 -0.012102769 0.026266197 -0.014986924 -0.0041252184 -0.011620353 -0.012806023
0.0031313077 0.023669854 -0.0030803566 -0.008244159

running_mean f4 [100]
00000000: 1ee9 063f 22bb bf3e 5c27 033f d149 0a3f
00000010: 445f 0b3f 2a92 9c3e 5b3c e53e e7c8 ff3e
00000020: 42aa d53e 9dd3 9a3e 93d2 a23e f9ac 9a3e
00000030: 6fbc f73e 1659 c33e 1c6f ff3e 6630 fe3e
00000040: 5d10 c93e 0836 eb3e 514a e73e 5c6b 5e3f
00000050: e78a ba3e 076a e93e c743 f23e 50c3 df3e
00000060: e141 023f 294c 183f d7b2 e13e 91cd d33e
00000070: 39fc a63e 31b3 eb3e 069e 013f 0dc7 c93e
00000080: ea67 1c3f f825 ca3e 36b3 fe3e b5d8 023f
00000090: 6702 323f d713 1a3f 94ba 1f3f 3085 1c3f
000000a0: 701e d53e df93 013f 8c79 1b3f 22b9 ee3e
000000b0: 4d53 bf3e a27e d03e 97de f73e b1ce d73e
000000c0: 0cba fe3e 4a0f 043f a182 c33e 7987 e83e
000000d0: 387f 163f 3ff5 a93e a90d 0f3f 9102 0b3f
000000e0: c8e0 aa3e 5f4f a73e 1e6b d13e 2a6d ca3e
000000f0: a339 fc3e 011b be3e 4d23 cc3e d1cd b53e
00000100: 6ce2 033f 6355 d03e 892d f23e 2ee7 073f
00000110: 920e df3e d453 c43e 5855 d43e addb 0e3f
00000120: 2935 083f 6241 e93e c224 dc3e 2805 fc3e
00000130: e82a d83e c4c9 0c3f 8507 d53e 8b84 c13e
00000140: 5469 033f 172a da3e c95c e73e 1b30 083f
00000150: b286 0c3f 7a16 d93e 38c5 cf3e 1d00 f13e
00000160: 8fb2 1f3f 4e02 fb3e 66f3 db3e 154a ef3e
00000170: f17b ce3e 9ccf e83e 7fea 0e3f cb70 143f
00000180: a453 ba3e 8400 b43e 409d f53e f097 223f
0.5269946 0.37447459 0.5123193 0.54018885 0.5444224 0.30580264 0.4477261 0.49957964
0.4173146 0.30239573 0.3180128 0.30210093 0.4838595 0.38153905 0.49889457 0.496463
0.39270297 0.4593966 0.45173886 0.8688257 0.364341 0.45588705 0.47317335 0.437037
0.50881773 0.5949121 0.44081756 0.41367772 0.32614306 0.4603515 0.5063175 0.39409676
0.6109606 0.39482093 0.49746102 0.5111192 0.69534916 0.60186523 0.6239407 0.6114073
0.41624784 0.5061626 0.6073234 0.4662562 0.3736824 0.40721613 0.4841201 0.4214988
0.49751318 0.5158583 0.381856 0.45415857 0.5878787 0.3319492 0.5588022 0.5430079
0.3337462 0.32677743 0.40902036 0.3953641 0.49262723 0.37129977 0.39870682 0.35508588
0.5151737 0.40690145 0.47300366 0.5308713 0.43565804 0.38345206 0.41471362 0.5580395
0.53206116 0.45557696 0.42996794 0.49222684 0.42220235 0.5499537 0.416073 0.37796435
0.5133259 0.42610237 0.45187977 0.53198403 0.5489303 0.4239996 0.40580153 0.470704
0.62381834 0.49025196 0.42959136 0.46736208 0.40328935 0.45470893 0.5582656 0.5798461
0.36391938 0.35156643 0.47971535 0.6351309

running_var f4 [100]
00000000: aaf8 1b3f 19f1 e23e c37b a13f b671 593f
00000010: c18d 2e3f ed90 883e bbdd fc3e da50 003f
00000020: 016b 143f 7d6e a23e 9c37 773e f767 6b3e
00000030: 6bd9 1a3f a150 c33e aab6 e13e f5ed 7d3f
00000040: 30ec b93e 836b 563f 48c9 093f 8486 0440
00000050: 8e2a f23e d6fd 393f 12af c33e 436c 1a3f
00000060: 4356 ff3e b431 4a3f 2f33 c53e f5e2 b53e
00000070: c754 cd3e 8a7b 543f 767c 1f3f 8afa d43e
00000080: 8f33 a83f 1664 e63e 8c74 2a3f 6cc3 063f
00000090: 8176 943f 2402 733f 9a60 5d3f a285 883f
000000a0: acd8 c83e a262 1a3f ed74 913f 101e 153f
000000b0: b953 dd3e eac6 293f 9e43 1d3f cda1 1e3f
000000c0: 05d0 263f b6eb 503f 9069 9e3e 604d e33e
000000d0: 6df5 283f 9f7e a93e ae10 383f ab57 053f
000000e0: 3649 963e 7a95 aa3e 60eb 483f 5eee c03e
000000f0: 3fad 183f 196d d53e 4d85 aa3e 8729 9b3e
00000100: 94fd 903f 0e35 f73e 7c09 3c3f 0740 503f
00000110: ed78 f83e 5d93 0c3f 4d13 d33e 193b e83f
00000120: 5c4a 1b3f 4be8 183f d919 ea3e cd82 fc3e
00000130: 5c43 2d3f b506 153f d2e5 413f 4d63 ab3e
00000140: 4f96 513f ed66 423f 47a8 473f 8e37 293f
00000150: 1c6f 353f e8ce c53e 3de9 283f 9502 f73e
00000160: f6ae 8e3f b817 e53e e89d c83e a573 083f
00000170: b11c f33e dff4 6d3f ffc3 063f 4392 8a3f
00000180: d23f 973e 76a5 a03e e02e 1e3f e28a 293f
0.60926306 0.44324568 1.2615894 0.84939134 0.6818505 0.2667307 0.49387917 0.5012337
0.57975775 0.3172492 0.24142307 0.22988878 0.60488003 0.38147452 0.44084674 0.9919122
0.3631301 0.837578 0.53822756 2.0707102 0.47298092 0.7265295 0.38219506 0.60321444
0.498705 0.7898209 0.38515612 0.35524717 0.40103742 0.83001006 0.6229929 0.41597396
1.3140734 0.44998235 0.66584086 0.5264194 1.1598665 0.9492514 0.8647553 1.0665781
0.39227808 0.6030675 1.1363808 0.58248997 0.43227938 0.66319144 0.614313 0.6196564
0.6516116 0.81609666 0.30939913 0.4439497 0.6599949 0.33104417 0.7190045 0.52086896
0.2935273 0.33317167 0.78484154 0.3768186 0.5963935 0.41684797 0.33304825 0.3030512
1.1327386 0.48282665 0.7345197 0.813477 0.4852976 0.5491236 0.41225663 1.8143035
0.6066034 0.5972945 0.45722845 0.49318543 0.6768091 0.5821336 0.757413 0.33474198
0.8186998 0.759383 0.77991146 0.66100395 0.70872664 0.3863442 0.65980893 0.48244157
1.1147144 0.44744658 0.39182973 0.5330146 0.47482827 0.9295177 0.52642816 1.0825886
0.2954088 0.31376237 0.61790276 0.66227543

weight f4 [1, 100]
00000000: 1d02 903d bd45 303d c3f9 25bd 0dad 4bbc
00000010: bc1b f1bb 5eed 183c e634 f83b 1023 1bbd
00000020: 06d0 063a 51c0 5f3a 4509 a3bb 3778 bebc
00000030: f216 0e3b fb4a 933c a6bd edbc b111 dbbc
00000040: 4403 72bd 3c7b 04bb dd67 32bd 6068 0d3b
00000050: b288 8e3b 650f 3cbd cb6f 40bc ac2b 1d3b
00000060: 5a73 8bbc 6984 913c eb73 95bb 41a4 9ebb
00000070: d21e a63a 88e5 713b 4e1b 41bd c67d 00bd
00000080: 7804 aaba 3f90 eb3c f0df 1fbd 37e6 22bd
00000090: 01b4 05bd 635e 9b3d a2e3 8b3d 75e1 8c3d
000000a0: 189e 913b 4afe 4f3c c12a 22bc a918 053c
000000b0: 39d2 80bd c051 d3ba d340 e63c a411 773c
000000c0: 16d9 e13c 2c79 54bd 1e3d 64bc 573c 6fbd
000000d0: 2fdb 9d3c 4c5d cf3c 9847 b1bd 3d28 a63b
000000e0: d903 a53c 8c78 61bc 4600 803d 1e11 67bb
000000f0: 7ee2 c4bc 8616 893c b609 89bc 2606 ea3c
00000100: 633b 72bc f201 11bd 2c58 dcbb 0a88 9ebd
00000110: ff4d 5b3c 9b19 3e3d 30f6 543d 4026 153c
00000120: fa38 25bc b2d5 45bc 9f22 293d de96 97bb
00000130: 0f92 363d 6390 debc 63c8 05bd 0595 3bbb
00000140: 9b2b 2c3d 428c ce3c 650f f73c 58fb b0bb
00000150: 304f 953d 0f14 01bc e48b 5cbd ba4b b4bb
00000160: 5a27 493d 4f41 22bc 3c13 673c 8dcb 88bc
00000170: 409b 6a3d 5480 7d3d 4683 5e3b c53e 583d
00000180: b90d c53b e892 ab3a cdfa 0c3d 62f5 1f3d
0.07031653 0.043035258 -0.040521394 -0.012431395 -0.0073580425 0.0093339365 0.0075746654 -0.037875235
0.0005142692 0.0008535432 -0.0049754702 -0.023250682 0.0021681157 0.01798009 -0.029021095 -0.026741834
-0.059085146 -0.0020215055 -0.043556083 0.0021577105 0.0043497914 -0.04591312 -0.0117454035 0.002398233
-0.017022777 0.017763333 -0.0045609376 -0.004841358 0.001267398 0.0036910493 -0.04714518 -0.031369947
-0.0012971302 0.028755305 -0.039031923 -0.03977033 -0.03264237 0.07586362 0.06830527 0.0687894
0.004443895 0.012694905 -0.009897889 0.008123555 -0.06290097 -0.0016122386 0.028107082 0.015079889
0.027569335 -0.05187337 -0.013930587 -0.058407154 0.019269554 0.025313042 -0.086562335 0.0050707147
0.020143436 -0.013761651 0.06250052 -0.0035258005 -0.024033781 0.016734373 -0.016728263 0.028567385
-0.014784667 -0.035402246 -0.006724378 -0.07740791 0.013385295 0.046411138 0.051992595 0.009103358
-0.010084385 -0.012074875 0.041292783 -0.004626139 0.044572886 -0.027168458 -0.032661807 -0.0028622758
0.042033773 0.025213365 0.030158708 -0.0054010563 0.072904944 -0.0078783175 -0.053844348 -0.0055021914
0.049109794 -0.009903266 0.014103707 -0.016698623 0.057276964 0.06188996 0.0033952757 0.052794237
0.0060135988 0.0013090046 0.03441887 0.039052375
